…
I0501 15:43:30.351809 2050462464 net.cpp:257] The NetState phase (0) differed from the phase (1) specified by a rule in layer accuracy
I0501 15:43:30.351826 2050462464 net.cpp:42] Initializing net from parameters: 
name: "CaffeNet"
state {
  phase: TRAIN
}
layer {
  name: "data"
  type: "ImageData"
  top: "data"
  top: "label"
  include {
    phase: TRAIN
  }
  transform_param {
    mirror: true
    crop_size: 227
    mean_value: 104
    mean_value: 117
    mean_value: 123
  }
  image_data_param {
    source: "../train_list.txt"
    batch_size: 64
  }
}
layer {
  name: "conv1"
  type: "Convolution"
  bottom: "data"
  top: "conv1"
  param {
    lr_mult: 1
    decay_mult: 1
  }
  param {
    lr_mult: 2
    decay_mult: 0
  }
  convolution_param {
    num_output: 96
    kernel_size: 11
    stride: 4
    weight_filler {
      type: "gaussian"
      std: 0.01
    }
    bias_filler {
      type: "constant"
      value: 0
    }
  }
}
layer {
  name: "relu1"
  type: "ReLU"
  bottom: "conv1"
  top: "conv1"
}
layer {
  name: "pool1"
  type: "Pooling"
  bottom: "conv1"
  top: "pool1"
  pooling_param {
    pool: MAX
    kernel_size: 3
    stride: 2
  }
}
layer {
  name: "norm1"
  type: "LRN"
  bottom: "pool1"
  top: "norm1"
  lrn_param {
    local_size: 5
    alpha: 0.0001
    beta: 0.75
  }
}
layer {
  name: "conv2"
  type: "Convolution"
  bottom: "norm1"
  top: "conv2"
  param {
    lr_mult: 1
    decay_mult: 1
  }
  param {
    lr_mult: 2
    decay_mult: 0
  }
  convolution_param {
    num_output: 256
    pad: 2
    kernel_size: 5
    group: 2
    weight_filler {
      type: "gaussian"
      std: 0.01
    }
    bias_filler {
      type: "constant"
      value: 1
    }
  }
}
layer {
  name: "relu2"
  type: "ReLU"
  bottom: "conv2"
  top: "conv2"
}
layer {
  name: "pool2"
  type: "Pooling"
  bottom: "conv2"
  top: "pool2"
  pooling_param {
    pool: MAX
    kernel_size: 3
    stride: 2
  }
}
layer {
  name: "norm2"
  type: "LRN"
  bottom: "pool2"
  top: "norm2"
  lrn_param {
    local_size: 5
    alpha: 0.0001
    beta: 0.75
  }
}
layer {
  name: "conv3"
  type: "Convolution"
  bottom: "norm2"
  top: "conv3"
  param {
    lr_mult: 1
    decay_mult: 1
  }
  param {
    lr_mult: 2
    decay_mult: 0
  }
  convolution_param {
    num_output: 384
    pad: 1
    kernel_size: 3
    weight_filler {
      type: "gaussian"
      std: 0.01
    }
    bias_filler {
      type: "constant"
      value: 0
    }
  }
}
layer {
  name: "relu3"
  type: "ReLU"
  bottom: "conv3"
  top: "conv3"
}
layer {
  name: "conv4"
  type: "Convolution"
  bottom: "conv3"
  top: "conv4"
  param {
    lr_mult: 1
    decay_mult: 1
  }
  param {
    lr_mult: 2
    decay_mult: 0
  }
  convolution_param {
    num_output: 384
    pad: 1
    kernel_size: 3
    group: 2
    weight_filler {
      type: "gaussian"
      std: 0.01
    }
    bias_filler {
      type: "constant"
      value: 1
    }
  }
}
layer {
  name: "relu4"
  type: "ReLU"
  bottom: "conv4"
  top: "conv4"
}
layer {
  name: "conv5"
  type: "Convolution"
  bottom: "conv4"
  top: "conv5"
  param {
    lr_mult: 1
    decay_mult: 1
  }
  param {
    lr_mult: 2
    decay_mult: 0
  }
  convolution_param {
    num_output: 256
    pad: 1
    kernel_size: 3
    group: 2
    weight_filler {
      type: "gaussian"
      std: 0.01
    }
    bias_filler {
      type: "constant"
      value: 1
    }
  }
}
layer {
  name: "relu5"
  type: "ReLU"
  bottom: "conv5"
  top: "conv5"
}
layer {
  name: "pool5"
  type: "Pooling"
  bottom: "conv5"
  top: "pool5"
  pooling_param {
    pool: MAX
    kernel_size: 3
    stride: 2
  }
}
layer {
  name: "fc6"
  type: "InnerProduct"
  bottom: "pool5"
  top: "fc6"
  param {
    lr_mult: 1
    decay_mult: 1
  }
  param {
    lr_mult: 2
    decay_mult: 0
  }
  inner_product_param {
    num_output: 4096
    weight_filler {
      type: "gaussian"
      std: 0.005
    }
    bias_filler {
      type: "constant"
      value: 1
    }
  }
}
layer {
  name: "relu6"
  type: "ReLU"
  bottom: "fc6"
  top: "fc6"
}
layer {
  name: "drop6"
  type: "Dropout"
  bottom: "fc6"
  top: "fc6"
  dropout_param {
    dropout_ratio: 0.5
  }
}
layer {
  name: "fc7"
  type: "InnerProduct"
  bottom: "fc6"
  top: "fc7"
  param {
    lr_mult: 1
    decay_mult: 1
  }
  param {
    lr_mult: 2
    decay_mult: 0
  }
  inner_product_param {
    num_output: 4096
    weight_filler {
      type: "gaussian"
      std: 0.005
    }
    bias_filler {
      type: "constant"
      value: 1
    }
  }
}
layer {
  name: "relu7"
  type: "ReLU"
  bottom: "fc7"
  top: "fc7"
}
layer {
  name: "drop7"
  type: "Dropout"
  bottom: "fc7"
  top: "fc7"
  dropout_param {
    dropout_ratio: 0.5
  }
}
layer {
  name: "fc8_VOC"
  type: "InnerProduct"
  bottom: "fc7"
  top: "fc8_VOC"
  param {
    lr_mult: 10
    decay_mult: 1
  }
  param {
    lr_mult: 20
    decay_mult: 0
  }
  inner_product_param {
    num_output: 5
    weight_filler {
      type: "gaussian"
      std: 0.01
    }
    bias_filler {
      type: "constant"
      value: 0
    }
  }
}
layer {
  name: "loss"
  type: "SoftmaxWithLoss"
  bottom: "fc8_VOC"
  bottom: "label"
  top: "loss"
}
I0501 15:43:30.352476 2050462464 layer_factory.hpp:74] Creating layer data
I0501 15:43:30.352774 2050462464 net.cpp:84] Creating Layer data
I0501 15:43:30.352794 2050462464 net.cpp:338] data -> data
I0501 15:43:30.352821 2050462464 net.cpp:338] data -> label
I0501 15:43:30.352831 2050462464 net.cpp:113] Setting up data
I0501 15:43:30.353057 2050462464 image_data_layer.cpp:36] Opening file ../train_list.txt
I0501 15:43:30.398411 2050462464 image_data_layer.cpp:51] A total of 32601 images.
E0501 15:43:30.398465 2050462464 io.cpp:77] Could not open or find file ../image_dump/cropped/pict_0.jpg
I0501 15:43:30.399123 2050462464 image_data_layer.cpp:80] output data size: 64,1,227,227
I0501 15:43:30.411710 2050462464 net.cpp:120] Top shape: 64 1 227 227 (3297856)
I0501 15:43:30.411743 2050462464 net.cpp:120] Top shape: 64 (64)
I0501 15:43:30.411753 2050462464 layer_factory.hpp:74] Creating layer conv1
I0501 15:43:30.411767 2050462464 net.cpp:84] Creating Layer conv1
I0501 15:43:30.411773 2050462464 net.cpp:380] conv1 <- data
I0501 15:43:30.411782 2050462464 net.cpp:338] conv1 -> conv1
I0501 15:43:30.411792 2050462464 net.cpp:113] Setting up conv1
E0501 15:43:30.411983 179355648 io.cpp:77] Could not open or find file ../image_dump/cropped/pict_0.jpg
F0501 15:43:30.412014 179355648 image_data_layer.cpp:135] Check failed: cv_img.data Could not load ../image_dump/cropped/pict_0.jpg
*** Check failure stack trace: ***
I0501 15:43:30.412437 2050462464 net.cpp:120] Top shape: 64 96 55 55 (18585600)
I0501 15:43:30.412770 2050462464 layer_factory.hpp:74] Creating layer relu1
I0501 15:43:30.412786 2050462464 net.cpp:84] Creating Layer relu1
I0501 15:43:30.412791 2050462464 net.cpp:380] relu1 <- conv1
I0501 15:43:30.412797 2050462464 net.cpp:327] relu1 -> conv1 (in-place)
I0501 15:43:30.412803 2050462464 net.cpp:113] Setting up relu1
I0501 15:43:30.412808 2050462464 net.cpp:120] Top shape: 64 96 55 55 (18585600)
I0501 15:43:30.412814 2050462464 layer_factory.hpp:74] Creating layer pool1
I0501 15:43:30.412822 2050462464 net.cpp:84] Creating Layer pool1
I0501 15:43:30.412825 2050462464 net.cpp:380] pool1 <- conv1
I0501 15:43:30.412832 2050462464 net.cpp:338] pool1 -> pool1
I0501 15:43:30.412840 2050462464 net.cpp:113] Setting up pool1
I0501 15:43:30.412858 2050462464 net.cpp:120] Top shape: 64 96 27 27 (4478976)
I0501 15:43:30.412865 2050462464 layer_factory.hpp:74] Creating layer norm1
I0501 15:43:30.412874 2050462464 net.cpp:84] Creating Layer norm1
I0501 15:43:30.412879 2050462464 net.cpp:380] norm1 <- pool1
I0501 15:43:30.412889 2050462464 net.cpp:338] norm1 -> norm1
I0501 15:43:30.412896 2050462464 net.cpp:113] Setting up norm1
I0501 15:43:30.412905 2050462464 net.cpp:120] Top shape: 64 96 27 27 (4478976)
I0501 15:43:30.412911 2050462464 layer_factory.hpp:74] Creating layer conv2
I0501 15:43:30.412919 2050462464 net.cpp:84] Creating Layer conv2
I0501 15:43:30.412922 2050462464 net.cpp:380] conv2 <- norm1
I0501 15:43:30.412928 2050462464 net.cpp:338] conv2 -> conv2
I0501 15:43:30.412935 2050462464 net.cpp:113] Setting up conv2
    @        0x108df4076  google::LogMessage::Fail()
…
I0501 15:49:39.824865 2050462464 net.cpp:257] The NetState phase (0) differed from the phase (1) specified by a rule in layer accuracy
I0501 15:49:39.824875 2050462464 net.cpp:42] Initializing net from parameters: 
name: "CaffeNet"
state {
  phase: TRAIN
}
layer {
  name: "data"
  type: "ImageData"
  top: "data"
  top: "label"
  include {
    phase: TRAIN
  }
  transform_param {
    mirror: true
    crop_size: 227
    mean_value: 104
    mean_value: 117
    mean_value: 123
  }
  image_data_param {
    source: "../train_list.txt"
    batch_size: 64
  }
}
layer {
  name: "conv1"
  type: "Convolution"
  bottom: "data"
  top: "conv1"
  param {
    lr_mult: 1
    decay_mult: 1
  }
  param {
    lr_mult: 2
    decay_mult: 0
  }
  convolution_param {
    num_output: 96
    kernel_size: 11
    stride: 4
    weight_filler {
      type: "gaussian"
      std: 0.01
    }
    bias_filler {
      type: "constant"
      value: 0
    }
  }
}
layer {
  name: "relu1"
  type: "ReLU"
  bottom: "conv1"
  top: "conv1"
}
layer {
  name: "pool1"
  type: "Pooling"
  bottom: "conv1"
  top: "pool1"
  pooling_param {
    pool: MAX
    kernel_size: 3
    stride: 2
  }
}
layer {
  name: "norm1"
  type: "LRN"
  bottom: "pool1"
  top: "norm1"
  lrn_param {
    local_size: 5
    alpha: 0.0001
    beta: 0.75
  }
}
layer {
  name: "conv2"
  type: "Convolution"
  bottom: "norm1"
  top: "conv2"
  param {
    lr_mult: 1
    decay_mult: 1
  }
  param {
    lr_mult: 2
    decay_mult: 0
  }
  convolution_param {
    num_output: 256
    pad: 2
    kernel_size: 5
    group: 2
    weight_filler {
      type: "gaussian"
      std: 0.01
    }
    bias_filler {
      type: "constant"
      value: 1
    }
  }
}
layer {
  name: "relu2"
  type: "ReLU"
  bottom: "conv2"
  top: "conv2"
}
layer {
  name: "pool2"
  type: "Pooling"
  bottom: "conv2"
  top: "pool2"
  pooling_param {
    pool: MAX
    kernel_size: 3
    stride: 2
  }
}
layer {
  name: "norm2"
  type: "LRN"
  bottom: "pool2"
  top: "norm2"
  lrn_param {
    local_size: 5
    alpha: 0.0001
    beta: 0.75
  }
}
layer {
  name: "conv3"
  type: "Convolution"
  bottom: "norm2"
  top: "conv3"
  param {
    lr_mult: 1
    decay_mult: 1
  }
  param {
    lr_mult: 2
    decay_mult: 0
  }
  convolution_param {
    num_output: 384
    pad: 1
    kernel_size: 3
    weight_filler {
      type: "gaussian"
      std: 0.01
    }
    bias_filler {
      type: "constant"
      value: 0
    }
  }
}
layer {
  name: "relu3"
  type: "ReLU"
  bottom: "conv3"
  top: "conv3"
}
layer {
  name: "conv4"
  type: "Convolution"
  bottom: "conv3"
  top: "conv4"
  param {
    lr_mult: 1
    decay_mult: 1
  }
  param {
    lr_mult: 2
    decay_mult: 0
  }
  convolution_param {
    num_output: 384
    pad: 1
    kernel_size: 3
    group: 2
    weight_filler {
      type: "gaussian"
      std: 0.01
    }
    bias_filler {
      type: "constant"
      value: 1
    }
  }
}
layer {
  name: "relu4"
  type: "ReLU"
  bottom: "conv4"
  top: "conv4"
}
layer {
  name: "conv5"
  type: "Convolution"
  bottom: "conv4"
  top: "conv5"
  param {
    lr_mult: 1
    decay_mult: 1
  }
  param {
    lr_mult: 2
    decay_mult: 0
  }
  convolution_param {
    num_output: 256
    pad: 1
    kernel_size: 3
    group: 2
    weight_filler {
      type: "gaussian"
      std: 0.01
    }
    bias_filler {
      type: "constant"
      value: 1
    }
  }
}
layer {
  name: "relu5"
  type: "ReLU"
  bottom: "conv5"
  top: "conv5"
}
layer {
  name: "pool5"
  type: "Pooling"
  bottom: "conv5"
  top: "pool5"
  pooling_param {
    pool: MAX
    kernel_size: 3
    stride: 2
  }
}
layer {
  name: "fc6"
  type: "InnerProduct"
  bottom: "pool5"
  top: "fc6"
  param {
    lr_mult: 1
    decay_mult: 1
  }
  param {
    lr_mult: 2
    decay_mult: 0
  }
  inner_product_param {
    num_output: 4096
    weight_filler {
      type: "gaussian"
      std: 0.005
    }
    bias_filler {
      type: "constant"
      value: 1
    }
  }
}
layer {
  name: "relu6"
  type: "ReLU"
  bottom: "fc6"
  top: "fc6"
}
layer {
  name: "drop6"
  type: "Dropout"
  bottom: "fc6"
  top: "fc6"
  dropout_param {
    dropout_ratio: 0.5
  }
}
layer {
  name: "fc7"
  type: "InnerProduct"
  bottom: "fc6"
  top: "fc7"
  param {
    lr_mult: 1
    decay_mult: 1
  }
  param {
    lr_mult: 2
    decay_mult: 0
  }
  inner_product_param {
    num_output: 4096
    weight_filler {
      type: "gaussian"
      std: 0.005
    }
    bias_filler {
      type: "constant"
      value: 1
    }
  }
}
layer {
  name: "relu7"
  type: "ReLU"
  bottom: "fc7"
  top: "fc7"
}
layer {
  name: "drop7"
  type: "Dropout"
  bottom: "fc7"
  top: "fc7"
  dropout_param {
    dropout_ratio: 0.5
  }
}
layer {
  name: "fc8_VOC"
  type: "InnerProduct"
  bottom: "fc7"
  top: "fc8_VOC"
  param {
    lr_mult: 10
    decay_mult: 1
  }
  param {
    lr_mult: 20
    decay_mult: 0
  }
  inner_product_param {
    num_output: 5
    weight_filler {
      type: "gaussian"
      std: 0.01
    }
    bias_filler {
      type: "constant"
      value: 0
    }
  }
}
layer {
  name: "loss"
  type: "SoftmaxWithLoss"
  bottom: "fc8_VOC"
  bottom: "label"
  top: "loss"
}
I0501 15:49:39.825714 2050462464 layer_factory.hpp:74] Creating layer data
I0501 15:49:39.825738 2050462464 net.cpp:84] Creating Layer data
I0501 15:49:39.825749 2050462464 net.cpp:338] data -> data
I0501 15:49:39.825772 2050462464 net.cpp:338] data -> label
I0501 15:49:39.825780 2050462464 net.cpp:113] Setting up data
I0501 15:49:39.825793 2050462464 image_data_layer.cpp:36] Opening file ../train_list.txt
I0501 15:49:39.868427 2050462464 image_data_layer.cpp:51] A total of 32601 images.
I0501 15:49:39.870414 2050462464 image_data_layer.cpp:80] output data size: 64,3,227,227
I0501 15:49:39.896838 2050462464 net.cpp:120] Top shape: 64 3 227 227 (9893568)
I0501 15:49:39.896878 2050462464 net.cpp:120] Top shape: 64 (64)
I0501 15:49:39.896893 2050462464 layer_factory.hpp:74] Creating layer conv1
I0501 15:49:39.896916 2050462464 net.cpp:84] Creating Layer conv1
I0501 15:49:39.896927 2050462464 net.cpp:380] conv1 <- data
I0501 15:49:39.896940 2050462464 net.cpp:338] conv1 -> conv1
I0501 15:49:39.896955 2050462464 net.cpp:113] Setting up conv1
I0501 15:49:39.897819 2050462464 net.cpp:120] Top shape: 64 96 55 55 (18585600)
I0501 15:49:39.897848 2050462464 layer_factory.hpp:74] Creating layer relu1
I0501 15:49:39.897874 2050462464 net.cpp:84] Creating Layer relu1
I0501 15:49:39.897884 2050462464 net.cpp:380] relu1 <- conv1
I0501 15:49:39.897898 2050462464 net.cpp:327] relu1 -> conv1 (in-place)
I0501 15:49:39.897910 2050462464 net.cpp:113] Setting up relu1
I0501 15:49:39.897919 2050462464 net.cpp:120] Top shape: 64 96 55 55 (18585600)
I0501 15:49:39.897930 2050462464 layer_factory.hpp:74] Creating layer pool1
I0501 15:49:39.897941 2050462464 net.cpp:84] Creating Layer pool1
I0501 15:49:39.897949 2050462464 net.cpp:380] pool1 <- conv1
I0501 15:49:39.897960 2050462464 net.cpp:338] pool1 -> pool1
I0501 15:49:39.897975 2050462464 net.cpp:113] Setting up pool1
I0501 15:49:39.898000 2050462464 net.cpp:120] Top shape: 64 96 27 27 (4478976)
I0501 15:49:39.898013 2050462464 layer_factory.hpp:74] Creating layer norm1
I0501 15:49:39.898028 2050462464 net.cpp:84] Creating Layer norm1
I0501 15:49:39.898037 2050462464 net.cpp:380] norm1 <- pool1
I0501 15:49:39.898048 2050462464 net.cpp:338] norm1 -> norm1
I0501 15:49:39.898061 2050462464 net.cpp:113] Setting up norm1
I0501 15:49:39.898075 2050462464 net.cpp:120] Top shape: 64 96 27 27 (4478976)
I0501 15:49:39.898087 2050462464 layer_factory.hpp:74] Creating layer conv2
I0501 15:49:39.898100 2050462464 net.cpp:84] Creating Layer conv2
I0501 15:49:39.898146 2050462464 net.cpp:380] conv2 <- norm1
I0501 15:49:39.898162 2050462464 net.cpp:338] conv2 -> conv2
I0501 15:49:39.898175 2050462464 net.cpp:113] Setting up conv2
I0501 15:49:39.905215 2050462464 net.cpp:120] Top shape: 64 256 27 27 (11943936)
I0501 15:49:39.905253 2050462464 layer_factory.hpp:74] Creating layer relu2
I0501 15:49:39.905268 2050462464 net.cpp:84] Creating Layer relu2
I0501 15:49:39.905277 2050462464 net.cpp:380] relu2 <- conv2
I0501 15:49:39.905288 2050462464 net.cpp:327] relu2 -> conv2 (in-place)
I0501 15:49:39.905302 2050462464 net.cpp:113] Setting up relu2
I0501 15:49:39.905309 2050462464 net.cpp:120] Top shape: 64 256 27 27 (11943936)
I0501 15:49:39.905321 2050462464 layer_factory.hpp:74] Creating layer pool2
I0501 15:49:39.905333 2050462464 net.cpp:84] Creating Layer pool2
I0501 15:49:39.905340 2050462464 net.cpp:380] pool2 <- conv2
I0501 15:49:39.905351 2050462464 net.cpp:338] pool2 -> pool2
I0501 15:49:39.905364 2050462464 net.cpp:113] Setting up pool2
I0501 15:49:39.905375 2050462464 net.cpp:120] Top shape: 64 256 13 13 (2768896)
I0501 15:49:39.905386 2050462464 layer_factory.hpp:74] Creating layer norm2
I0501 15:49:39.905400 2050462464 net.cpp:84] Creating Layer norm2
I0501 15:49:39.905468 2050462464 net.cpp:380] norm2 <- pool2
I0501 15:49:39.905485 2050462464 net.cpp:338] norm2 -> norm2
I0501 15:49:39.905498 2050462464 net.cpp:113] Setting up norm2
I0501 15:49:39.905508 2050462464 net.cpp:120] Top shape: 64 256 13 13 (2768896)
I0501 15:49:39.905520 2050462464 layer_factory.hpp:74] Creating layer conv3
I0501 15:49:39.905534 2050462464 net.cpp:84] Creating Layer conv3
I0501 15:49:39.905542 2050462464 net.cpp:380] conv3 <- norm2
I0501 15:49:39.905558 2050462464 net.cpp:338] conv3 -> conv3
I0501 15:49:39.905573 2050462464 net.cpp:113] Setting up conv3
I0501 15:49:39.925165 2050462464 net.cpp:120] Top shape: 64 384 13 13 (4153344)
I0501 15:49:39.925207 2050462464 layer_factory.hpp:74] Creating layer relu3
I0501 15:49:39.925216 2050462464 net.cpp:84] Creating Layer relu3
I0501 15:49:39.925247 2050462464 net.cpp:380] relu3 <- conv3
I0501 15:49:39.925266 2050462464 net.cpp:327] relu3 -> conv3 (in-place)
I0501 15:49:39.925274 2050462464 net.cpp:113] Setting up relu3
I0501 15:49:39.925281 2050462464 net.cpp:120] Top shape: 64 384 13 13 (4153344)
I0501 15:49:39.925287 2050462464 layer_factory.hpp:74] Creating layer conv4
I0501 15:49:39.925295 2050462464 net.cpp:84] Creating Layer conv4
I0501 15:49:39.925300 2050462464 net.cpp:380] conv4 <- conv3
I0501 15:49:39.925307 2050462464 net.cpp:338] conv4 -> conv4
I0501 15:49:39.925313 2050462464 net.cpp:113] Setting up conv4
I0501 15:49:39.937610 2050462464 net.cpp:120] Top shape: 64 384 13 13 (4153344)
I0501 15:49:39.937646 2050462464 layer_factory.hpp:74] Creating layer relu4
I0501 15:49:39.937662 2050462464 net.cpp:84] Creating Layer relu4
I0501 15:49:39.937667 2050462464 net.cpp:380] relu4 <- conv4
I0501 15:49:39.937674 2050462464 net.cpp:327] relu4 -> conv4 (in-place)
I0501 15:49:39.937680 2050462464 net.cpp:113] Setting up relu4
I0501 15:49:39.937686 2050462464 net.cpp:120] Top shape: 64 384 13 13 (4153344)
I0501 15:49:39.937691 2050462464 layer_factory.hpp:74] Creating layer conv5
I0501 15:49:39.937700 2050462464 net.cpp:84] Creating Layer conv5
I0501 15:49:39.937703 2050462464 net.cpp:380] conv5 <- conv4
I0501 15:49:39.937710 2050462464 net.cpp:338] conv5 -> conv5
I0501 15:49:39.937717 2050462464 net.cpp:113] Setting up conv5
I0501 15:49:39.945868 2050462464 net.cpp:120] Top shape: 64 256 13 13 (2768896)
I0501 15:49:39.945907 2050462464 layer_factory.hpp:74] Creating layer relu5
I0501 15:49:39.945924 2050462464 net.cpp:84] Creating Layer relu5
I0501 15:49:39.945933 2050462464 net.cpp:380] relu5 <- conv5
I0501 15:49:39.945953 2050462464 net.cpp:327] relu5 -> conv5 (in-place)
I0501 15:49:39.945967 2050462464 net.cpp:113] Setting up relu5
I0501 15:49:39.945976 2050462464 net.cpp:120] Top shape: 64 256 13 13 (2768896)
I0501 15:49:39.945988 2050462464 layer_factory.hpp:74] Creating layer pool5
I0501 15:49:39.946035 2050462464 net.cpp:84] Creating Layer pool5
I0501 15:49:39.946045 2050462464 net.cpp:380] pool5 <- conv5
I0501 15:49:39.946058 2050462464 net.cpp:338] pool5 -> pool5
I0501 15:49:39.946069 2050462464 net.cpp:113] Setting up pool5
I0501 15:49:39.946082 2050462464 net.cpp:120] Top shape: 64 256 6 6 (589824)
I0501 15:49:39.946094 2050462464 layer_factory.hpp:74] Creating layer fc6
I0501 15:49:39.946110 2050462464 net.cpp:84] Creating Layer fc6
I0501 15:49:39.946264 2050462464 net.cpp:380] fc6 <- pool5
I0501 15:49:39.946286 2050462464 net.cpp:338] fc6 -> fc6
I0501 15:49:39.946301 2050462464 net.cpp:113] Setting up fc6
I0501 15:49:40.706302 2050462464 net.cpp:120] Top shape: 64 4096 (262144)
I0501 15:49:40.706346 2050462464 layer_factory.hpp:74] Creating layer relu6
I0501 15:49:40.706362 2050462464 net.cpp:84] Creating Layer relu6
I0501 15:49:40.706372 2050462464 net.cpp:380] relu6 <- fc6
I0501 15:49:40.706382 2050462464 net.cpp:327] relu6 -> fc6 (in-place)
I0501 15:49:40.706389 2050462464 net.cpp:113] Setting up relu6
I0501 15:49:40.706394 2050462464 net.cpp:120] Top shape: 64 4096 (262144)
I0501 15:49:40.706441 2050462464 layer_factory.hpp:74] Creating layer drop6
I0501 15:49:40.706465 2050462464 net.cpp:84] Creating Layer drop6
I0501 15:49:40.706473 2050462464 net.cpp:380] drop6 <- fc6
I0501 15:49:40.706485 2050462464 net.cpp:327] drop6 -> fc6 (in-place)
I0501 15:49:40.706498 2050462464 net.cpp:113] Setting up drop6
I0501 15:49:40.706516 2050462464 net.cpp:120] Top shape: 64 4096 (262144)
I0501 15:49:40.706528 2050462464 layer_factory.hpp:74] Creating layer fc7
I0501 15:49:40.706542 2050462464 net.cpp:84] Creating Layer fc7
I0501 15:49:40.706552 2050462464 net.cpp:380] fc7 <- fc6
I0501 15:49:40.706563 2050462464 net.cpp:338] fc7 -> fc7
I0501 15:49:40.706576 2050462464 net.cpp:113] Setting up fc7
I0501 15:49:41.040921 2050462464 net.cpp:120] Top shape: 64 4096 (262144)
I0501 15:49:41.040957 2050462464 layer_factory.hpp:74] Creating layer relu7
I0501 15:49:41.040969 2050462464 net.cpp:84] Creating Layer relu7
I0501 15:49:41.040974 2050462464 net.cpp:380] relu7 <- fc7
I0501 15:49:41.040990 2050462464 net.cpp:327] relu7 -> fc7 (in-place)
I0501 15:49:41.040999 2050462464 net.cpp:113] Setting up relu7
I0501 15:49:41.041007 2050462464 net.cpp:120] Top shape: 64 4096 (262144)
I0501 15:49:41.041012 2050462464 layer_factory.hpp:74] Creating layer drop7
I0501 15:49:41.041018 2050462464 net.cpp:84] Creating Layer drop7
I0501 15:49:41.041023 2050462464 net.cpp:380] drop7 <- fc7
I0501 15:49:41.041028 2050462464 net.cpp:327] drop7 -> fc7 (in-place)
I0501 15:49:41.041033 2050462464 net.cpp:113] Setting up drop7
I0501 15:49:41.041039 2050462464 net.cpp:120] Top shape: 64 4096 (262144)
I0501 15:49:41.041044 2050462464 layer_factory.hpp:74] Creating layer fc8_VOC
I0501 15:49:41.041051 2050462464 net.cpp:84] Creating Layer fc8_VOC
I0501 15:49:41.041055 2050462464 net.cpp:380] fc8_VOC <- fc7
I0501 15:49:41.041061 2050462464 net.cpp:338] fc8_VOC -> fc8_VOC
I0501 15:49:41.041069 2050462464 net.cpp:113] Setting up fc8_VOC
I0501 15:49:41.041399 2050462464 net.cpp:120] Top shape: 64 5 (320)
I0501 15:49:41.041407 2050462464 layer_factory.hpp:74] Creating layer loss
I0501 15:49:41.041664 2050462464 net.cpp:84] Creating Layer loss
I0501 15:49:41.041682 2050462464 net.cpp:380] loss <- fc8_VOC
I0501 15:49:41.041687 2050462464 net.cpp:380] loss <- label
I0501 15:49:41.041694 2050462464 net.cpp:338] loss -> loss
I0501 15:49:41.041702 2050462464 net.cpp:113] Setting up loss
I0501 15:49:41.041708 2050462464 layer_factory.hpp:74] Creating layer loss
…
I0501 15:49:41.042515 2050462464 solver.cpp:154] Creating test net (#0) specified by net file: train_val.prototxt
I0501 15:49:41.042558 2050462464 net.cpp:257] The NetState phase (1) differed from the phase (0) specified by a rule in layer data
I0501 15:49:41.042577 2050462464 net.cpp:42] Initializing net from parameters: 
name: "CaffeNet"
state {
  phase: TEST
}
layer {
  name: "data"
  type: "ImageData"
  top: "data"
  top: "label"
  include {
    phase: TEST
  }
  transform_param {
    mirror: false
    crop_size: 227
    mean_value: 104
    mean_value: 117
    mean_value: 123
  }
  image_data_param {
    source: "../test_list.txt"
    batch_size: 64
  }
}
layer {
  name: "conv1"
  type: "Convolution"
  bottom: "data"
  top: "conv1"
  param {
    lr_mult: 1
    decay_mult: 1
  }
  param {
    lr_mult: 2
    decay_mult: 0
  }
  convolution_param {
    num_output: 96
    kernel_size: 11
    stride: 4
    weight_filler {
      type: "gaussian"
      std: 0.01
    }
    bias_filler {
      type: "constant"
      value: 0
    }
  }
}
layer {
  name: "relu1"
  type: "ReLU"
  bottom: "conv1"
  top: "conv1"
}
layer {
  name: "pool1"
  type: "Pooling"
  bottom: "conv1"
  top: "pool1"
  pooling_param {
    pool: MAX
    kernel_size: 3
    stride: 2
  }
}
layer {
  name: "norm1"
  type: "LRN"
  bottom: "pool1"
  top: "norm1"
  lrn_param {
    local_size: 5
    alpha: 0.0001
    beta: 0.75
  }
}
layer {
  name: "conv2"
  type: "Convolution"
  bottom: "norm1"
  top: "conv2"
  param {
    lr_mult: 1
    decay_mult: 1
  }
  param {
    lr_mult: 2
    decay_mult: 0
  }
  convolution_param {
    num_output: 256
    pad: 2
    kernel_size: 5
    group: 2
    weight_filler {
      type: "gaussian"
      std: 0.01
    }
    bias_filler {
      type: "constant"
      value: 1
    }
  }
}
layer {
  name: "relu2"
  type: "ReLU"
  bottom: "conv2"
  top: "conv2"
}
layer {
  name: "pool2"
  type: "Pooling"
  bottom: "conv2"
  top: "pool2"
  pooling_param {
    pool: MAX
    kernel_size: 3
    stride: 2
  }
}
layer {
  name: "norm2"
  type: "LRN"
  bottom: "pool2"
  top: "norm2"
  lrn_param {
    local_size: 5
    alpha: 0.0001
    beta: 0.75
  }
}
layer {
  name: "conv3"
  type: "Convolution"
  bottom: "norm2"
  top: "conv3"
  param {
    lr_mult: 1
    decay_mult: 1
  }
  param {
    lr_mult: 2
    decay_mult: 0
  }
  convolution_param {
    num_output: 384
    pad: 1
    kernel_size: 3
    weight_filler {
      type: "gaussian"
      std: 0.01
    }
    bias_filler {
      type: "constant"
      value: 0
    }
  }
}
layer {
  name: "relu3"
  type: "ReLU"
  bottom: "conv3"
  top: "conv3"
}
layer {
  name: "conv4"
  type: "Convolution"
  bottom: "conv3"
  top: "conv4"
  param {
    lr_mult: 1
    decay_mult: 1
  }
  param {
    lr_mult: 2
    decay_mult: 0
  }
  convolution_param {
    num_output: 384
    pad: 1
    kernel_size: 3
    group: 2
    weight_filler {
      type: "gaussian"
      std: 0.01
    }
    bias_filler {
      type: "constant"
      value: 1
    }
  }
}
layer {
  name: "relu4"
  type: "ReLU"
  bottom: "conv4"
  top: "conv4"
}
layer {
  name: "conv5"
  type: "Convolution"
  bottom: "conv4"
  top: "conv5"
  param {
    lr_mult: 1
    decay_mult: 1
  }
  param {
    lr_mult: 2
    decay_mult: 0
  }
  convolution_param {
    num_output: 256
    pad: 1
    kernel_size: 3
    group: 2
    weight_filler {
      type: "gaussian"
      std: 0.01
    }
    bias_filler {
      type: "constant"
      value: 1
    }
  }
}
layer {
  name: "relu5"
  type: "ReLU"
  bottom: "conv5"
  top: "conv5"
}
layer {
  name: "pool5"
  type: "Pooling"
  bottom: "conv5"
  top: "pool5"
  pooling_param {
    pool: MAX
    kernel_size: 3
    stride: 2
  }
}
layer {
  name: "fc6"
  type: "InnerProduct"
  bottom: "pool5"
  top: "fc6"
  param {
    lr_mult: 1
    decay_mult: 1
  }
  param {
    lr_mult: 2
    decay_mult: 0
  }
  inner_product_param {
    num_output: 4096
    weight_filler {
      type: "gaussian"
      std: 0.005
    }
    bias_filler {
      type: "constant"
      value: 1
    }
  }
}
layer {
  name: "relu6"
  type: "ReLU"
  bottom: "fc6"
  top: "fc6"
}
layer {
  name: "drop6"
  type: "Dropout"
  bottom: "fc6"
  top: "fc6"
  dropout_param {
    dropout_ratio: 0.5
  }
}
layer {
  name: "fc7"
  type: "InnerProduct"
  bottom: "fc6"
  top: "fc7"
  param {
    lr_mult: 1
    decay_mult: 1
  }
  param {
    lr_mult: 2
    decay_mult: 0
  }
  inner_product_param {
    num_output: 4096
    weight_filler {
      type: "gaussian"
      std: 0.005
    }
    bias_filler {
      type: "constant"
      value: 1
    }
  }
}
layer {
  name: "relu7"
  type: "ReLU"
  bottom: "fc7"
  top: "fc7"
}
layer {
  name: "drop7"
  type: "Dropout"
  bottom: "fc7"
  top: "fc7"
  dropout_param {
    dropout_ratio: 0.5
  }
}
layer {
  name: "fc8_VOC"
  type: "InnerProduct"
  bottom: "fc7"
  top: "fc8_VOC"
  param {
    lr_mult: 10
    decay_mult: 1
  }
  param {
    lr_mult: 20
    decay_mult: 0
  }
  inner_product_param {
    num_output: 5
    weight_filler {
      type: "gaussian"
      std: 0.01
    }
    bias_filler {
      type: "constant"
      value: 0
    }
  }
}
layer {
  name: "accuracy"
  type: "Accuracy"
  bottom: "fc8_VOC"
  bottom: "label"
  top: "accuracy"
  include {
    phase: TEST
  }
}
layer {
  name: "loss"
  type: "SoftmaxWithLoss"
  bottom: "fc8_VOC"
  bottom: "label"
  top: "loss"
}
I0501 15:49:41.043256 2050462464 layer_factory.hpp:74] Creating layer data
I0501 15:49:41.043272 2050462464 net.cpp:84] Creating Layer data
I0501 15:49:41.043278 2050462464 net.cpp:338] data -> data
I0501 15:49:41.043288 2050462464 net.cpp:338] data -> label
I0501 15:49:41.043295 2050462464 net.cpp:113] Setting up data
I0501 15:49:41.043300 2050462464 image_data_layer.cpp:36] Opening file ../test_list.txt
I0501 15:49:41.050626 2050462464 image_data_layer.cpp:51] A total of 3703 images.
I0501 15:49:41.052788 2050462464 image_data_layer.cpp:80] output data size: 64,3,227,227
I0501 15:49:41.078548 2050462464 net.cpp:120] Top shape: 64 3 227 227 (9893568)
I0501 15:49:41.078596 2050462464 net.cpp:120] Top shape: 64 (64)
I0501 15:49:41.078621 2050462464 layer_factory.hpp:74] Creating layer label_data_1_split
I0501 15:49:41.078641 2050462464 net.cpp:84] Creating Layer label_data_1_split
I0501 15:49:41.078651 2050462464 net.cpp:380] label_data_1_split <- label
I0501 15:49:41.078694 2050462464 net.cpp:338] label_data_1_split -> label_data_1_split_0
I0501 15:49:41.078712 2050462464 net.cpp:338] label_data_1_split -> label_data_1_split_1
I0501 15:49:41.078726 2050462464 net.cpp:113] Setting up label_data_1_split
I0501 15:49:41.078737 2050462464 net.cpp:120] Top shape: 64 (64)
I0501 15:49:41.078745 2050462464 net.cpp:120] Top shape: 64 (64)
I0501 15:49:41.078755 2050462464 layer_factory.hpp:74] Creating layer conv1
I0501 15:49:41.078769 2050462464 net.cpp:84] Creating Layer conv1
I0501 15:49:41.078778 2050462464 net.cpp:380] conv1 <- data
I0501 15:49:41.078790 2050462464 net.cpp:338] conv1 -> conv1
I0501 15:49:41.078805 2050462464 net.cpp:113] Setting up conv1
I0501 15:49:41.079745 2050462464 net.cpp:120] Top shape: 64 96 55 55 (18585600)
I0501 15:49:41.079780 2050462464 layer_factory.hpp:74] Creating layer relu1
I0501 15:49:41.079797 2050462464 net.cpp:84] Creating Layer relu1
I0501 15:49:41.079807 2050462464 net.cpp:380] relu1 <- conv1
I0501 15:49:41.079818 2050462464 net.cpp:327] relu1 -> conv1 (in-place)
I0501 15:49:41.079830 2050462464 net.cpp:113] Setting up relu1
I0501 15:49:41.079839 2050462464 net.cpp:120] Top shape: 64 96 55 55 (18585600)
I0501 15:49:41.079852 2050462464 layer_factory.hpp:74] Creating layer pool1
I0501 15:49:41.079866 2050462464 net.cpp:84] Creating Layer pool1
I0501 15:49:41.079875 2050462464 net.cpp:380] pool1 <- conv1
I0501 15:49:41.079887 2050462464 net.cpp:338] pool1 -> pool1
I0501 15:49:41.079900 2050462464 net.cpp:113] Setting up pool1
I0501 15:49:41.079915 2050462464 net.cpp:120] Top shape: 64 96 27 27 (4478976)
I0501 15:49:41.079926 2050462464 layer_factory.hpp:74] Creating layer norm1
I0501 15:49:41.079941 2050462464 net.cpp:84] Creating Layer norm1
I0501 15:49:41.079949 2050462464 net.cpp:380] norm1 <- pool1
I0501 15:49:41.079960 2050462464 net.cpp:338] norm1 -> norm1
I0501 15:49:41.079973 2050462464 net.cpp:113] Setting up norm1
I0501 15:49:41.079985 2050462464 net.cpp:120] Top shape: 64 96 27 27 (4478976)
I0501 15:49:41.079998 2050462464 layer_factory.hpp:74] Creating layer conv2
I0501 15:49:41.080013 2050462464 net.cpp:84] Creating Layer conv2
I0501 15:49:41.080021 2050462464 net.cpp:380] conv2 <- norm1
I0501 15:49:41.080034 2050462464 net.cpp:338] conv2 -> conv2
I0501 15:49:41.080049 2050462464 net.cpp:113] Setting up conv2
I0501 15:49:41.088572 2050462464 net.cpp:120] Top shape: 64 256 27 27 (11943936)
I0501 15:49:41.088608 2050462464 layer_factory.hpp:74] Creating layer relu2
I0501 15:49:41.088621 2050462464 net.cpp:84] Creating Layer relu2
I0501 15:49:41.088630 2050462464 net.cpp:380] relu2 <- conv2
I0501 15:49:41.088641 2050462464 net.cpp:327] relu2 -> conv2 (in-place)
I0501 15:49:41.088652 2050462464 net.cpp:113] Setting up relu2
I0501 15:49:41.088661 2050462464 net.cpp:120] Top shape: 64 256 27 27 (11943936)
I0501 15:49:41.088673 2050462464 layer_factory.hpp:74] Creating layer pool2
I0501 15:49:41.088685 2050462464 net.cpp:84] Creating Layer pool2
I0501 15:49:41.088693 2050462464 net.cpp:380] pool2 <- conv2
I0501 15:49:41.088704 2050462464 net.cpp:338] pool2 -> pool2
I0501 15:49:41.088717 2050462464 net.cpp:113] Setting up pool2
I0501 15:49:41.088729 2050462464 net.cpp:120] Top shape: 64 256 13 13 (2768896)
I0501 15:49:41.088740 2050462464 layer_factory.hpp:74] Creating layer norm2
I0501 15:49:41.088752 2050462464 net.cpp:84] Creating Layer norm2
I0501 15:49:41.088759 2050462464 net.cpp:380] norm2 <- pool2
I0501 15:49:41.088769 2050462464 net.cpp:338] norm2 -> norm2
I0501 15:49:41.088781 2050462464 net.cpp:113] Setting up norm2
I0501 15:49:41.088791 2050462464 net.cpp:120] Top shape: 64 256 13 13 (2768896)
I0501 15:49:41.088803 2050462464 layer_factory.hpp:74] Creating layer conv3
I0501 15:49:41.088815 2050462464 net.cpp:84] Creating Layer conv3
I0501 15:49:41.088824 2050462464 net.cpp:380] conv3 <- norm2
I0501 15:49:41.088835 2050462464 net.cpp:338] conv3 -> conv3
I0501 15:49:41.088848 2050462464 net.cpp:113] Setting up conv3
I0501 15:49:41.111925 2050462464 net.cpp:120] Top shape: 64 384 13 13 (4153344)
I0501 15:49:41.112153 2050462464 layer_factory.hpp:74] Creating layer relu3
I0501 15:49:41.112174 2050462464 net.cpp:84] Creating Layer relu3
I0501 15:49:41.112184 2050462464 net.cpp:380] relu3 <- conv3
I0501 15:49:41.112306 2050462464 net.cpp:327] relu3 -> conv3 (in-place)
I0501 15:49:41.112323 2050462464 net.cpp:113] Setting up relu3
I0501 15:49:41.112334 2050462464 net.cpp:120] Top shape: 64 384 13 13 (4153344)
I0501 15:49:41.112344 2050462464 layer_factory.hpp:74] Creating layer conv4
I0501 15:49:41.112360 2050462464 net.cpp:84] Creating Layer conv4
I0501 15:49:41.112370 2050462464 net.cpp:380] conv4 <- conv3
I0501 15:49:41.112381 2050462464 net.cpp:338] conv4 -> conv4
I0501 15:49:41.112396 2050462464 net.cpp:113] Setting up conv4
I0501 15:49:41.130193 2050462464 net.cpp:120] Top shape: 64 384 13 13 (4153344)
I0501 15:49:41.130230 2050462464 layer_factory.hpp:74] Creating layer relu4
I0501 15:49:41.130245 2050462464 net.cpp:84] Creating Layer relu4
I0501 15:49:41.130264 2050462464 net.cpp:380] relu4 <- conv4
I0501 15:49:41.130276 2050462464 net.cpp:327] relu4 -> conv4 (in-place)
I0501 15:49:41.130324 2050462464 net.cpp:113] Setting up relu4
I0501 15:49:41.130345 2050462464 net.cpp:120] Top shape: 64 384 13 13 (4153344)
I0501 15:49:41.130358 2050462464 layer_factory.hpp:74] Creating layer conv5
I0501 15:49:41.130374 2050462464 net.cpp:84] Creating Layer conv5
I0501 15:49:41.130384 2050462464 net.cpp:380] conv5 <- conv4
I0501 15:49:41.130398 2050462464 net.cpp:338] conv5 -> conv5
I0501 15:49:41.130412 2050462464 net.cpp:113] Setting up conv5
I0501 15:49:41.138970 2050462464 net.cpp:120] Top shape: 64 256 13 13 (2768896)
I0501 15:49:41.139009 2050462464 layer_factory.hpp:74] Creating layer relu5
I0501 15:49:41.139024 2050462464 net.cpp:84] Creating Layer relu5
I0501 15:49:41.139031 2050462464 net.cpp:380] relu5 <- conv5
I0501 15:49:41.139041 2050462464 net.cpp:327] relu5 -> conv5 (in-place)
I0501 15:49:41.139052 2050462464 net.cpp:113] Setting up relu5
I0501 15:49:41.139060 2050462464 net.cpp:120] Top shape: 64 256 13 13 (2768896)
I0501 15:49:41.139068 2050462464 layer_factory.hpp:74] Creating layer pool5
I0501 15:49:41.139080 2050462464 net.cpp:84] Creating Layer pool5
I0501 15:49:41.139086 2050462464 net.cpp:380] pool5 <- conv5
I0501 15:49:41.139096 2050462464 net.cpp:338] pool5 -> pool5
I0501 15:49:41.139106 2050462464 net.cpp:113] Setting up pool5
I0501 15:49:41.139117 2050462464 net.cpp:120] Top shape: 64 256 6 6 (589824)
I0501 15:49:41.139125 2050462464 layer_factory.hpp:74] Creating layer fc6
I0501 15:49:41.139137 2050462464 net.cpp:84] Creating Layer fc6
I0501 15:49:41.139143 2050462464 net.cpp:380] fc6 <- pool5
I0501 15:49:41.139153 2050462464 net.cpp:338] fc6 -> fc6
I0501 15:49:41.139173 2050462464 net.cpp:113] Setting up fc6
I0501 15:49:41.968797 2050462464 net.cpp:120] Top shape: 64 4096 (262144)
I0501 15:49:41.968852 2050462464 layer_factory.hpp:74] Creating layer relu6
I0501 15:49:41.968878 2050462464 net.cpp:84] Creating Layer relu6
I0501 15:49:41.968888 2050462464 net.cpp:380] relu6 <- fc6
I0501 15:49:41.968899 2050462464 net.cpp:327] relu6 -> fc6 (in-place)
I0501 15:49:41.968914 2050462464 net.cpp:113] Setting up relu6
I0501 15:49:41.968922 2050462464 net.cpp:120] Top shape: 64 4096 (262144)
I0501 15:49:41.968932 2050462464 layer_factory.hpp:74] Creating layer drop6
I0501 15:49:41.968943 2050462464 net.cpp:84] Creating Layer drop6
I0501 15:49:41.968951 2050462464 net.cpp:380] drop6 <- fc6
I0501 15:49:41.968961 2050462464 net.cpp:327] drop6 -> fc6 (in-place)
I0501 15:49:41.968972 2050462464 net.cpp:113] Setting up drop6
I0501 15:49:41.968982 2050462464 net.cpp:120] Top shape: 64 4096 (262144)
I0501 15:49:41.968992 2050462464 layer_factory.hpp:74] Creating layer fc7
I0501 15:49:41.969007 2050462464 net.cpp:84] Creating Layer fc7
I0501 15:49:41.969014 2050462464 net.cpp:380] fc7 <- fc6
I0501 15:49:41.969027 2050462464 net.cpp:338] fc7 -> fc7
I0501 15:49:41.969040 2050462464 net.cpp:113] Setting up fc7
I0501 15:49:42.317960 2050462464 net.cpp:120] Top shape: 64 4096 (262144)
I0501 15:49:42.318017 2050462464 layer_factory.hpp:74] Creating layer relu7
I0501 15:49:42.318090 2050462464 net.cpp:84] Creating Layer relu7
I0501 15:49:42.318105 2050462464 net.cpp:380] relu7 <- fc7
I0501 15:49:42.318120 2050462464 net.cpp:327] relu7 -> fc7 (in-place)
I0501 15:49:42.318137 2050462464 net.cpp:113] Setting up relu7
I0501 15:49:42.318148 2050462464 net.cpp:120] Top shape: 64 4096 (262144)
I0501 15:49:42.318161 2050462464 layer_factory.hpp:74] Creating layer drop7
I0501 15:49:42.318176 2050462464 net.cpp:84] Creating Layer drop7
I0501 15:49:42.318186 2050462464 net.cpp:380] drop7 <- fc7
I0501 15:49:42.318231 2050462464 net.cpp:327] drop7 -> fc7 (in-place)
I0501 15:49:42.318248 2050462464 net.cpp:113] Setting up drop7
I0501 15:49:42.318254 2050462464 net.cpp:120] Top shape: 64 4096 (262144)
I0501 15:49:42.318261 2050462464 layer_factory.hpp:74] Creating layer fc8_VOC
I0501 15:49:42.318271 2050462464 net.cpp:84] Creating Layer fc8_VOC
I0501 15:49:42.318276 2050462464 net.cpp:380] fc8_VOC <- fc7
I0501 15:49:42.318285 2050462464 net.cpp:338] fc8_VOC -> fc8_VOC
I0501 15:49:42.318302 2050462464 net.cpp:113] Setting up fc8_VOC
I0501 15:49:42.318713 2050462464 net.cpp:120] Top shape: 64 5 (320)
I0501 15:49:42.318734 2050462464 layer_factory.hpp:74] Creating layer fc8_VOC_fc8_VOC_0_split
I0501 15:49:42.318744 2050462464 net.cpp:84] Creating Layer fc8_VOC_fc8_VOC_0_split
I0501 15:49:42.318749 2050462464 net.cpp:380] fc8_VOC_fc8_VOC_0_split <- fc8_VOC
I0501 15:49:42.318758 2050462464 net.cpp:338] fc8_VOC_fc8_VOC_0_split -> fc8_VOC_fc8_VOC_0_split_0
I0501 15:49:42.318768 2050462464 net.cpp:338] fc8_VOC_fc8_VOC_0_split -> fc8_VOC_fc8_VOC_0_split_1
I0501 15:49:42.318776 2050462464 net.cpp:113] Setting up fc8_VOC_fc8_VOC_0_split
I0501 15:49:42.318799 2050462464 net.cpp:120] Top shape: 64 5 (320)
I0501 15:49:42.318837 2050462464 net.cpp:120] Top shape: 64 5 (320)
I0501 15:49:42.318846 2050462464 layer_factory.hpp:74] Creating layer accuracy
I0501 15:49:42.319072 2050462464 net.cpp:84] Creating Layer accuracy
I0501 15:49:42.319088 2050462464 net.cpp:380] accuracy <- fc8_VOC_fc8_VOC_0_split_0
I0501 15:49:42.319097 2050462464 net.cpp:380] accuracy <- label_data_1_split_0
I0501 15:49:42.319104 2050462464 net.cpp:338] accuracy -> accuracy
I0501 15:49:42.319114 2050462464 net.cpp:113] Setting up accuracy
…
I0502 16:47:41.094995 2050462464 net.cpp:257] The NetState phase (0) differed from the phase (1) specified by a rule in layer accuracy
I0502 16:47:41.095011 2050462464 net.cpp:42] Initializing net from parameters: 
name: "CaffeNet"
state {
  phase: TRAIN
}
layer {
  name: "data"
  type: "ImageData"
  top: "data"
  top: "label"
  include {
    phase: TRAIN
  }
  transform_param {
    mirror: true
    crop_size: 227
    mean_value: 104
    mean_value: 117
    mean_value: 123
  }
  image_data_param {
    source: "../train_list.txt"
    batch_size: 64
  }
}
layer {
  name: "conv1"
  type: "Convolution"
  bottom: "data"
  top: "conv1"
  param {
    lr_mult: 1
    decay_mult: 1
  }
  param {
    lr_mult: 2
    decay_mult: 0
  }
  convolution_param {
    num_output: 96
    kernel_size: 11
    stride: 4
    weight_filler {
      type: "gaussian"
      std: 0.01
    }
    bias_filler {
      type: "constant"
      value: 0
    }
  }
}
layer {
  name: "relu1"
  type: "ReLU"
  bottom: "conv1"
  top: "conv1"
}
layer {
  name: "pool1"
  type: "Pooling"
  bottom: "conv1"
  top: "pool1"
  pooling_param {
    pool: MAX
    kernel_size: 3
    stride: 2
  }
}
layer {
  name: "norm1"
  type: "LRN"
  bottom: "pool1"
  top: "norm1"
  lrn_param {
    local_size: 5
    alpha: 0.0001
    beta: 0.75
  }
}
layer {
  name: "conv2"
  type: "Convolution"
  bottom: "norm1"
  top: "conv2"
  param {
    lr_mult: 1
    decay_mult: 1
  }
  param {
    lr_mult: 2
    decay_mult: 0
  }
  convolution_param {
    num_output: 256
    pad: 2
    kernel_size: 5
    group: 2
    weight_filler {
      type: "gaussian"
      std: 0.01
    }
    bias_filler {
      type: "constant"
      value: 1
    }
  }
}
layer {
  name: "relu2"
  type: "ReLU"
  bottom: "conv2"
  top: "conv2"
}
layer {
  name: "pool2"
  type: "Pooling"
  bottom: "conv2"
  top: "pool2"
  pooling_param {
    pool: MAX
    kernel_size: 3
    stride: 2
  }
}
layer {
  name: "norm2"
  type: "LRN"
  bottom: "pool2"
  top: "norm2"
  lrn_param {
    local_size: 5
    alpha: 0.0001
    beta: 0.75
  }
}
layer {
  name: "conv3"
  type: "Convolution"
  bottom: "norm2"
  top: "conv3"
  param {
    lr_mult: 1
    decay_mult: 1
  }
  param {
    lr_mult: 2
    decay_mult: 0
  }
  convolution_param {
    num_output: 384
    pad: 1
    kernel_size: 3
    weight_filler {
      type: "gaussian"
      std: 0.01
    }
    bias_filler {
      type: "constant"
      value: 0
    }
  }
}
layer {
  name: "relu3"
  type: "ReLU"
  bottom: "conv3"
  top: "conv3"
}
layer {
  name: "conv4"
  type: "Convolution"
  bottom: "conv3"
  top: "conv4"
  param {
    lr_mult: 1
    decay_mult: 1
  }
  param {
    lr_mult: 2
    decay_mult: 0
  }
  convolution_param {
    num_output: 384
    pad: 1
    kernel_size: 3
    group: 2
    weight_filler {
      type: "gaussian"
      std: 0.01
    }
    bias_filler {
      type: "constant"
      value: 1
    }
  }
}
layer {
  name: "relu4"
  type: "ReLU"
  bottom: "conv4"
  top: "conv4"
}
layer {
  name: "conv5"
  type: "Convolution"
  bottom: "conv4"
  top: "conv5"
  param {
    lr_mult: 1
    decay_mult: 1
  }
  param {
    lr_mult: 2
    decay_mult: 0
  }
  convolution_param {
    num_output: 256
    pad: 1
    kernel_size: 3
    group: 2
    weight_filler {
      type: "gaussian"
      std: 0.01
    }
    bias_filler {
      type: "constant"
      value: 1
    }
  }
}
layer {
  name: "relu5"
  type: "ReLU"
  bottom: "conv5"
  top: "conv5"
}
layer {
  name: "pool5"
  type: "Pooling"
  bottom: "conv5"
  top: "pool5"
  pooling_param {
    pool: MAX
    kernel_size: 3
    stride: 2
  }
}
layer {
  name: "fc6"
  type: "InnerProduct"
  bottom: "pool5"
  top: "fc6"
  param {
    lr_mult: 1
    decay_mult: 1
  }
  param {
    lr_mult: 2
    decay_mult: 0
  }
  inner_product_param {
    num_output: 4096
    weight_filler {
      type: "gaussian"
      std: 0.005
    }
    bias_filler {
      type: "constant"
      value: 1
    }
  }
}
layer {
  name: "relu6"
  type: "ReLU"
  bottom: "fc6"
  top: "fc6"
}
layer {
  name: "drop6"
  type: "Dropout"
  bottom: "fc6"
  top: "fc6"
  dropout_param {
    dropout_ratio: 0.5
  }
}
layer {
  name: "fc7"
  type: "InnerProduct"
  bottom: "fc6"
  top: "fc7"
  param {
    lr_mult: 1
    decay_mult: 1
  }
  param {
    lr_mult: 2
    decay_mult: 0
  }
  inner_product_param {
    num_output: 4096
    weight_filler {
      type: "gaussian"
      std: 0.005
    }
    bias_filler {
      type: "constant"
      value: 1
    }
  }
}
layer {
  name: "relu7"
  type: "ReLU"
  bottom: "fc7"
  top: "fc7"
}
layer {
  name: "drop7"
  type: "Dropout"
  bottom: "fc7"
  top: "fc7"
  dropout_param {
    dropout_ratio: 0.5
  }
}
layer {
  name: "fc8_VOC"
  type: "InnerProduct"
  bottom: "fc7"
  top: "fc8_VOC"
  param {
    lr_mult: 10
    decay_mult: 1
  }
  param {
    lr_mult: 20
    decay_mult: 0
  }
  inner_product_param {
    num_output: 6
    weight_filler {
      type: "gaussian"
      std: 0.01
    }
    bias_filler {
      type: "constant"
      value: 0
    }
  }
}
layer {
  name: "loss"
  type: "SoftmaxWithLoss"
  bottom: "fc8_VOC"
  bottom: "label"
  top: "loss"
}
I0502 16:47:41.095860 2050462464 layer_factory.hpp:74] Creating layer data
I0502 16:47:41.096142 2050462464 net.cpp:84] Creating Layer data
I0502 16:47:41.096159 2050462464 net.cpp:338] data -> data
I0502 16:47:41.096186 2050462464 net.cpp:338] data -> label
I0502 16:47:41.096199 2050462464 net.cpp:113] Setting up data
I0502 16:47:41.096379 2050462464 image_data_layer.cpp:36] Opening file ../train_list.txt
I0502 16:47:41.133525 2050462464 image_data_layer.cpp:51] A total of 32601 images.
I0502 16:47:41.135416 2050462464 image_data_layer.cpp:80] output data size: 64,3,227,227
I0502 16:47:41.161146 2050462464 net.cpp:120] Top shape: 64 3 227 227 (9893568)
I0502 16:47:41.161195 2050462464 net.cpp:120] Top shape: 64 (64)
I0502 16:47:41.161212 2050462464 layer_factory.hpp:74] Creating layer conv1
I0502 16:47:41.161239 2050462464 net.cpp:84] Creating Layer conv1
I0502 16:47:41.161252 2050462464 net.cpp:380] conv1 <- data
I0502 16:47:41.161270 2050462464 net.cpp:338] conv1 -> conv1
I0502 16:47:41.161295 2050462464 net.cpp:113] Setting up conv1
I0502 16:47:41.162134 2050462464 net.cpp:120] Top shape: 64 96 55 55 (18585600)
I0502 16:47:41.162156 2050462464 layer_factory.hpp:74] Creating layer relu1
I0502 16:47:41.162171 2050462464 net.cpp:84] Creating Layer relu1
I0502 16:47:41.162179 2050462464 net.cpp:380] relu1 <- conv1
I0502 16:47:41.162189 2050462464 net.cpp:327] relu1 -> conv1 (in-place)
I0502 16:47:41.162195 2050462464 net.cpp:113] Setting up relu1
I0502 16:47:41.162200 2050462464 net.cpp:120] Top shape: 64 96 55 55 (18585600)
I0502 16:47:41.162206 2050462464 layer_factory.hpp:74] Creating layer pool1
I0502 16:47:41.162214 2050462464 net.cpp:84] Creating Layer pool1
I0502 16:47:41.162220 2050462464 net.cpp:380] pool1 <- conv1
I0502 16:47:41.162225 2050462464 net.cpp:338] pool1 -> pool1
I0502 16:47:41.162235 2050462464 net.cpp:113] Setting up pool1
I0502 16:47:41.162253 2050462464 net.cpp:120] Top shape: 64 96 27 27 (4478976)
I0502 16:47:41.162261 2050462464 layer_factory.hpp:74] Creating layer norm1
I0502 16:47:41.162269 2050462464 net.cpp:84] Creating Layer norm1
I0502 16:47:41.162274 2050462464 net.cpp:380] norm1 <- pool1
I0502 16:47:41.162281 2050462464 net.cpp:338] norm1 -> norm1
I0502 16:47:41.162287 2050462464 net.cpp:113] Setting up norm1
I0502 16:47:41.162297 2050462464 net.cpp:120] Top shape: 64 96 27 27 (4478976)
I0502 16:47:41.162303 2050462464 layer_factory.hpp:74] Creating layer conv2
I0502 16:47:41.162343 2050462464 net.cpp:84] Creating Layer conv2
I0502 16:47:41.162348 2050462464 net.cpp:380] conv2 <- norm1
I0502 16:47:41.162354 2050462464 net.cpp:338] conv2 -> conv2
I0502 16:47:41.162361 2050462464 net.cpp:113] Setting up conv2
I0502 16:47:41.167886 2050462464 net.cpp:120] Top shape: 64 256 27 27 (11943936)
I0502 16:47:41.167914 2050462464 layer_factory.hpp:74] Creating layer relu2
I0502 16:47:41.167927 2050462464 net.cpp:84] Creating Layer relu2
I0502 16:47:41.167935 2050462464 net.cpp:380] relu2 <- conv2
I0502 16:47:41.167947 2050462464 net.cpp:327] relu2 -> conv2 (in-place)
I0502 16:47:41.167958 2050462464 net.cpp:113] Setting up relu2
I0502 16:47:41.167968 2050462464 net.cpp:120] Top shape: 64 256 27 27 (11943936)
I0502 16:47:41.167973 2050462464 layer_factory.hpp:74] Creating layer pool2
I0502 16:47:41.167980 2050462464 net.cpp:84] Creating Layer pool2
I0502 16:47:41.167984 2050462464 net.cpp:380] pool2 <- conv2
I0502 16:47:41.167990 2050462464 net.cpp:338] pool2 -> pool2
I0502 16:47:41.167997 2050462464 net.cpp:113] Setting up pool2
I0502 16:47:41.168004 2050462464 net.cpp:120] Top shape: 64 256 13 13 (2768896)
I0502 16:47:41.168009 2050462464 layer_factory.hpp:74] Creating layer norm2
I0502 16:47:41.168016 2050462464 net.cpp:84] Creating Layer norm2
I0502 16:47:41.168022 2050462464 net.cpp:380] norm2 <- pool2
I0502 16:47:41.168032 2050462464 net.cpp:338] norm2 -> norm2
I0502 16:47:41.168056 2050462464 net.cpp:113] Setting up norm2
I0502 16:47:41.168074 2050462464 net.cpp:120] Top shape: 64 256 13 13 (2768896)
I0502 16:47:41.168083 2050462464 layer_factory.hpp:74] Creating layer conv3
I0502 16:47:41.168102 2050462464 net.cpp:84] Creating Layer conv3
I0502 16:47:41.168112 2050462464 net.cpp:380] conv3 <- norm2
I0502 16:47:41.168125 2050462464 net.cpp:338] conv3 -> conv3
I0502 16:47:41.168139 2050462464 net.cpp:113] Setting up conv3
I0502 16:47:41.184538 2050462464 net.cpp:120] Top shape: 64 384 13 13 (4153344)
I0502 16:47:41.184603 2050462464 layer_factory.hpp:74] Creating layer relu3
I0502 16:47:41.184633 2050462464 net.cpp:84] Creating Layer relu3
I0502 16:47:41.184649 2050462464 net.cpp:380] relu3 <- conv3
I0502 16:47:41.184666 2050462464 net.cpp:327] relu3 -> conv3 (in-place)
I0502 16:47:41.184689 2050462464 net.cpp:113] Setting up relu3
I0502 16:47:41.184702 2050462464 net.cpp:120] Top shape: 64 384 13 13 (4153344)
I0502 16:47:41.184720 2050462464 layer_factory.hpp:74] Creating layer conv4
I0502 16:47:41.184741 2050462464 net.cpp:84] Creating Layer conv4
I0502 16:47:41.184751 2050462464 net.cpp:380] conv4 <- conv3
I0502 16:47:41.184766 2050462464 net.cpp:338] conv4 -> conv4
I0502 16:47:41.184782 2050462464 net.cpp:113] Setting up conv4
I0502 16:47:41.199199 2050462464 net.cpp:120] Top shape: 64 384 13 13 (4153344)
I0502 16:47:41.199252 2050462464 layer_factory.hpp:74] Creating layer relu4
I0502 16:47:41.199270 2050462464 net.cpp:84] Creating Layer relu4
I0502 16:47:41.199280 2050462464 net.cpp:380] relu4 <- conv4
I0502 16:47:41.199293 2050462464 net.cpp:327] relu4 -> conv4 (in-place)
I0502 16:47:41.199306 2050462464 net.cpp:113] Setting up relu4
I0502 16:47:41.199316 2050462464 net.cpp:120] Top shape: 64 384 13 13 (4153344)
I0502 16:47:41.199326 2050462464 layer_factory.hpp:74] Creating layer conv5
I0502 16:47:41.199342 2050462464 net.cpp:84] Creating Layer conv5
I0502 16:47:41.199349 2050462464 net.cpp:380] conv5 <- conv4
I0502 16:47:41.199362 2050462464 net.cpp:338] conv5 -> conv5
I0502 16:47:41.199375 2050462464 net.cpp:113] Setting up conv5
I0502 16:47:41.209010 2050462464 net.cpp:120] Top shape: 64 256 13 13 (2768896)
I0502 16:47:41.209045 2050462464 layer_factory.hpp:74] Creating layer relu5
I0502 16:47:41.209069 2050462464 net.cpp:84] Creating Layer relu5
I0502 16:47:41.209079 2050462464 net.cpp:380] relu5 <- conv5
I0502 16:47:41.209090 2050462464 net.cpp:327] relu5 -> conv5 (in-place)
I0502 16:47:41.209102 2050462464 net.cpp:113] Setting up relu5
I0502 16:47:41.209111 2050462464 net.cpp:120] Top shape: 64 256 13 13 (2768896)
I0502 16:47:41.209122 2050462464 layer_factory.hpp:74] Creating layer pool5
I0502 16:47:41.209167 2050462464 net.cpp:84] Creating Layer pool5
I0502 16:47:41.209178 2050462464 net.cpp:380] pool5 <- conv5
I0502 16:47:41.209189 2050462464 net.cpp:338] pool5 -> pool5
I0502 16:47:41.209202 2050462464 net.cpp:113] Setting up pool5
I0502 16:47:41.209213 2050462464 net.cpp:120] Top shape: 64 256 6 6 (589824)
I0502 16:47:41.209224 2050462464 layer_factory.hpp:74] Creating layer fc6
I0502 16:47:41.209240 2050462464 net.cpp:84] Creating Layer fc6
I0502 16:47:41.209249 2050462464 net.cpp:380] fc6 <- pool5
I0502 16:47:41.209264 2050462464 net.cpp:338] fc6 -> fc6
I0502 16:47:41.209278 2050462464 net.cpp:113] Setting up fc6
I0502 16:47:41.825434 2050462464 net.cpp:120] Top shape: 64 4096 (262144)
I0502 16:47:41.825470 2050462464 layer_factory.hpp:74] Creating layer relu6
I0502 16:47:41.825481 2050462464 net.cpp:84] Creating Layer relu6
I0502 16:47:41.825487 2050462464 net.cpp:380] relu6 <- fc6
I0502 16:47:41.825494 2050462464 net.cpp:327] relu6 -> fc6 (in-place)
I0502 16:47:41.825501 2050462464 net.cpp:113] Setting up relu6
I0502 16:47:41.825506 2050462464 net.cpp:120] Top shape: 64 4096 (262144)
I0502 16:47:41.825511 2050462464 layer_factory.hpp:74] Creating layer drop6
I0502 16:47:41.825517 2050462464 net.cpp:84] Creating Layer drop6
I0502 16:47:41.825521 2050462464 net.cpp:380] drop6 <- fc6
I0502 16:47:41.825527 2050462464 net.cpp:327] drop6 -> fc6 (in-place)
I0502 16:47:41.825559 2050462464 net.cpp:113] Setting up drop6
I0502 16:47:41.825593 2050462464 net.cpp:120] Top shape: 64 4096 (262144)
I0502 16:47:41.825609 2050462464 layer_factory.hpp:74] Creating layer fc7
I0502 16:47:41.825620 2050462464 net.cpp:84] Creating Layer fc7
I0502 16:47:41.825625 2050462464 net.cpp:380] fc7 <- fc6
I0502 16:47:41.825634 2050462464 net.cpp:338] fc7 -> fc7
I0502 16:47:41.825642 2050462464 net.cpp:113] Setting up fc7
I0502 16:47:42.102093 2050462464 net.cpp:120] Top shape: 64 4096 (262144)
I0502 16:47:42.102144 2050462464 layer_factory.hpp:74] Creating layer relu7
I0502 16:47:42.102157 2050462464 net.cpp:84] Creating Layer relu7
I0502 16:47:42.102164 2050462464 net.cpp:380] relu7 <- fc7
I0502 16:47:42.102171 2050462464 net.cpp:327] relu7 -> fc7 (in-place)
I0502 16:47:42.102180 2050462464 net.cpp:113] Setting up relu7
I0502 16:47:42.102185 2050462464 net.cpp:120] Top shape: 64 4096 (262144)
I0502 16:47:42.102191 2050462464 layer_factory.hpp:74] Creating layer drop7
I0502 16:47:42.102200 2050462464 net.cpp:84] Creating Layer drop7
I0502 16:47:42.102203 2050462464 net.cpp:380] drop7 <- fc7
I0502 16:47:42.102210 2050462464 net.cpp:327] drop7 -> fc7 (in-place)
I0502 16:47:42.102216 2050462464 net.cpp:113] Setting up drop7
I0502 16:47:42.102221 2050462464 net.cpp:120] Top shape: 64 4096 (262144)
I0502 16:47:42.102226 2050462464 layer_factory.hpp:74] Creating layer fc8_VOC
I0502 16:47:42.102236 2050462464 net.cpp:84] Creating Layer fc8_VOC
I0502 16:47:42.102239 2050462464 net.cpp:380] fc8_VOC <- fc7
I0502 16:47:42.102246 2050462464 net.cpp:338] fc8_VOC -> fc8_VOC
I0502 16:47:42.102254 2050462464 net.cpp:113] Setting up fc8_VOC
I0502 16:47:42.102680 2050462464 net.cpp:120] Top shape: 64 6 (384)
I0502 16:47:42.102694 2050462464 layer_factory.hpp:74] Creating layer loss
I0502 16:47:42.102972 2050462464 net.cpp:84] Creating Layer loss
I0502 16:47:42.102991 2050462464 net.cpp:380] loss <- fc8_VOC
I0502 16:47:42.102998 2050462464 net.cpp:380] loss <- label
I0502 16:47:42.103006 2050462464 net.cpp:338] loss -> loss
I0502 16:47:42.103014 2050462464 net.cpp:113] Setting up loss
I0502 16:47:42.103021 2050462464 layer_factory.hpp:74] Creating layer loss
…
I0502 16:47:42.104024 2050462464 solver.cpp:154] Creating test net (#0) specified by net file: train_val_background.prototxt
I0502 16:47:42.104100 2050462464 net.cpp:257] The NetState phase (1) differed from the phase (0) specified by a rule in layer data
I0502 16:47:42.104136 2050462464 net.cpp:42] Initializing net from parameters: 
name: "CaffeNet"
state {
  phase: TEST
}
layer {
  name: "data"
  type: "ImageData"
  top: "data"
  top: "label"
  include {
    phase: TEST
  }
  transform_param {
    mirror: false
    crop_size: 227
    mean_value: 104
    mean_value: 117
    mean_value: 123
  }
  image_data_param {
    source: "../test_list.txt"
    batch_size: 64
  }
}
layer {
  name: "conv1"
  type: "Convolution"
  bottom: "data"
  top: "conv1"
  param {
    lr_mult: 1
    decay_mult: 1
  }
  param {
    lr_mult: 2
    decay_mult: 0
  }
  convolution_param {
    num_output: 96
    kernel_size: 11
    stride: 4
    weight_filler {
      type: "gaussian"
      std: 0.01
    }
    bias_filler {
      type: "constant"
      value: 0
    }
  }
}
layer {
  name: "relu1"
  type: "ReLU"
  bottom: "conv1"
  top: "conv1"
}
layer {
  name: "pool1"
  type: "Pooling"
  bottom: "conv1"
  top: "pool1"
  pooling_param {
    pool: MAX
    kernel_size: 3
    stride: 2
  }
}
layer {
  name: "norm1"
  type: "LRN"
  bottom: "pool1"
  top: "norm1"
  lrn_param {
    local_size: 5
    alpha: 0.0001
    beta: 0.75
  }
}
layer {
  name: "conv2"
  type: "Convolution"
  bottom: "norm1"
  top: "conv2"
  param {
    lr_mult: 1
    decay_mult: 1
  }
  param {
    lr_mult: 2
    decay_mult: 0
  }
  convolution_param {
    num_output: 256
    pad: 2
    kernel_size: 5
    group: 2
    weight_filler {
      type: "gaussian"
      std: 0.01
    }
    bias_filler {
      type: "constant"
      value: 1
    }
  }
}
layer {
  name: "relu2"
  type: "ReLU"
  bottom: "conv2"
  top: "conv2"
}
layer {
  name: "pool2"
  type: "Pooling"
  bottom: "conv2"
  top: "pool2"
  pooling_param {
    pool: MAX
    kernel_size: 3
    stride: 2
  }
}
layer {
  name: "norm2"
  type: "LRN"
  bottom: "pool2"
  top: "norm2"
  lrn_param {
    local_size: 5
    alpha: 0.0001
    beta: 0.75
  }
}
layer {
  name: "conv3"
  type: "Convolution"
  bottom: "norm2"
  top: "conv3"
  param {
    lr_mult: 1
    decay_mult: 1
  }
  param {
    lr_mult: 2
    decay_mult: 0
  }
  convolution_param {
    num_output: 384
    pad: 1
    kernel_size: 3
    weight_filler {
      type: "gaussian"
      std: 0.01
    }
    bias_filler {
      type: "constant"
      value: 0
    }
  }
}
layer {
  name: "relu3"
  type: "ReLU"
  bottom: "conv3"
  top: "conv3"
}
layer {
  name: "conv4"
  type: "Convolution"
  bottom: "conv3"
  top: "conv4"
  param {
    lr_mult: 1
    decay_mult: 1
  }
  param {
    lr_mult: 2
    decay_mult: 0
  }
  convolution_param {
    num_output: 384
    pad: 1
    kernel_size: 3
    group: 2
    weight_filler {
      type: "gaussian"
      std: 0.01
    }
    bias_filler {
      type: "constant"
      value: 1
    }
  }
}
layer {
  name: "relu4"
  type: "ReLU"
  bottom: "conv4"
  top: "conv4"
}
layer {
  name: "conv5"
  type: "Convolution"
  bottom: "conv4"
  top: "conv5"
  param {
    lr_mult: 1
    decay_mult: 1
  }
  param {
    lr_mult: 2
    decay_mult: 0
  }
  convolution_param {
    num_output: 256
    pad: 1
    kernel_size: 3
    group: 2
    weight_filler {
      type: "gaussian"
      std: 0.01
    }
    bias_filler {
      type: "constant"
      value: 1
    }
  }
}
layer {
  name: "relu5"
  type: "ReLU"
  bottom: "conv5"
  top: "conv5"
}
layer {
  name: "pool5"
  type: "Pooling"
  bottom: "conv5"
  top: "pool5"
  pooling_param {
    pool: MAX
    kernel_size: 3
    stride: 2
  }
}
layer {
  name: "fc6"
  type: "InnerProduct"
  bottom: "pool5"
  top: "fc6"
  param {
    lr_mult: 1
    decay_mult: 1
  }
  param {
    lr_mult: 2
    decay_mult: 0
  }
  inner_product_param {
    num_output: 4096
    weight_filler {
      type: "gaussian"
      std: 0.005
    }
    bias_filler {
      type: "constant"
      value: 1
    }
  }
}
layer {
  name: "relu6"
  type: "ReLU"
  bottom: "fc6"
  top: "fc6"
}
layer {
  name: "drop6"
  type: "Dropout"
  bottom: "fc6"
  top: "fc6"
  dropout_param {
    dropout_ratio: 0.5
  }
}
layer {
  name: "fc7"
  type: "InnerProduct"
  bottom: "fc6"
  top: "fc7"
  param {
    lr_mult: 1
    decay_mult: 1
  }
  param {
    lr_mult: 2
    decay_mult: 0
  }
  inner_product_param {
    num_output: 4096
    weight_filler {
      type: "gaussian"
      std: 0.005
    }
    bias_filler {
      type: "constant"
      value: 1
    }
  }
}
layer {
  name: "relu7"
  type: "ReLU"
  bottom: "fc7"
  top: "fc7"
}
layer {
  name: "drop7"
  type: "Dropout"
  bottom: "fc7"
  top: "fc7"
  dropout_param {
    dropout_ratio: 0.5
  }
}
layer {
  name: "fc8_VOC"
  type: "InnerProduct"
  bottom: "fc7"
  top: "fc8_VOC"
  param {
    lr_mult: 10
    decay_mult: 1
  }
  param {
    lr_mult: 20
    decay_mult: 0
  }
  inner_product_param {
    num_output: 6
    weight_filler {
      type: "gaussian"
      std: 0.01
    }
    bias_filler {
      type: "constant"
      value: 0
    }
  }
}
layer {
  name: "accuracy"
  type: "Accuracy"
  bottom: "fc8_VOC"
  bottom: "label"
  top: "accuracy"
  include {
    phase: TEST
  }
}
layer {
  name: "loss"
  type: "SoftmaxWithLoss"
  bottom: "fc8_VOC"
  bottom: "label"
  top: "loss"
}
I0502 16:47:42.104554 2050462464 layer_factory.hpp:74] Creating layer data
I0502 16:47:42.104569 2050462464 net.cpp:84] Creating Layer data
I0502 16:47:42.104578 2050462464 net.cpp:338] data -> data
I0502 16:47:42.104589 2050462464 net.cpp:338] data -> label
I0502 16:47:42.104596 2050462464 net.cpp:113] Setting up data
I0502 16:47:42.104601 2050462464 image_data_layer.cpp:36] Opening file ../test_list.txt
I0502 16:47:42.109459 2050462464 image_data_layer.cpp:51] A total of 3703 images.
I0502 16:47:42.111187 2050462464 image_data_layer.cpp:80] output data size: 64,3,227,227
I0502 16:47:42.133710 2050462464 net.cpp:120] Top shape: 64 3 227 227 (9893568)
I0502 16:47:42.133769 2050462464 net.cpp:120] Top shape: 64 (64)
I0502 16:47:42.133779 2050462464 layer_factory.hpp:74] Creating layer label_data_1_split
I0502 16:47:42.133908 2050462464 net.cpp:84] Creating Layer label_data_1_split
I0502 16:47:42.133997 2050462464 net.cpp:380] label_data_1_split <- label
I0502 16:47:42.134125 2050462464 net.cpp:338] label_data_1_split -> label_data_1_split_0
I0502 16:47:42.134244 2050462464 net.cpp:338] label_data_1_split -> label_data_1_split_1
I0502 16:47:42.134321 2050462464 net.cpp:113] Setting up label_data_1_split
I0502 16:47:42.134397 2050462464 net.cpp:120] Top shape: 64 (64)
I0502 16:47:42.134416 2050462464 net.cpp:120] Top shape: 64 (64)
I0502 16:47:42.134481 2050462464 layer_factory.hpp:74] Creating layer conv1
I0502 16:47:42.134546 2050462464 net.cpp:84] Creating Layer conv1
I0502 16:47:42.134584 2050462464 net.cpp:380] conv1 <- data
I0502 16:47:42.134641 2050462464 net.cpp:338] conv1 -> conv1
I0502 16:47:42.134714 2050462464 net.cpp:113] Setting up conv1
I0502 16:47:42.135789 2050462464 net.cpp:120] Top shape: 64 96 55 55 (18585600)
I0502 16:47:42.135810 2050462464 layer_factory.hpp:74] Creating layer relu1
I0502 16:47:42.135820 2050462464 net.cpp:84] Creating Layer relu1
I0502 16:47:42.135825 2050462464 net.cpp:380] relu1 <- conv1
I0502 16:47:42.135833 2050462464 net.cpp:327] relu1 -> conv1 (in-place)
I0502 16:47:42.135839 2050462464 net.cpp:113] Setting up relu1
I0502 16:47:42.135844 2050462464 net.cpp:120] Top shape: 64 96 55 55 (18585600)
I0502 16:47:42.135850 2050462464 layer_factory.hpp:74] Creating layer pool1
I0502 16:47:42.135864 2050462464 net.cpp:84] Creating Layer pool1
I0502 16:47:42.135869 2050462464 net.cpp:380] pool1 <- conv1
I0502 16:47:42.135875 2050462464 net.cpp:338] pool1 -> pool1
I0502 16:47:42.135902 2050462464 net.cpp:113] Setting up pool1
I0502 16:47:42.135910 2050462464 net.cpp:120] Top shape: 64 96 27 27 (4478976)
I0502 16:47:42.135922 2050462464 layer_factory.hpp:74] Creating layer norm1
I0502 16:47:42.135931 2050462464 net.cpp:84] Creating Layer norm1
I0502 16:47:42.135954 2050462464 net.cpp:380] norm1 <- pool1
I0502 16:47:42.135984 2050462464 net.cpp:338] norm1 -> norm1
I0502 16:47:42.136008 2050462464 net.cpp:113] Setting up norm1
I0502 16:47:42.136015 2050462464 net.cpp:120] Top shape: 64 96 27 27 (4478976)
I0502 16:47:42.136021 2050462464 layer_factory.hpp:74] Creating layer conv2
I0502 16:47:42.136060 2050462464 net.cpp:84] Creating Layer conv2
I0502 16:47:42.136076 2050462464 net.cpp:380] conv2 <- norm1
I0502 16:47:42.136131 2050462464 net.cpp:338] conv2 -> conv2
I0502 16:47:42.136152 2050462464 net.cpp:113] Setting up conv2
I0502 16:47:42.143733 2050462464 net.cpp:120] Top shape: 64 256 27 27 (11943936)
I0502 16:47:42.143795 2050462464 layer_factory.hpp:74] Creating layer relu2
I0502 16:47:42.143813 2050462464 net.cpp:84] Creating Layer relu2
I0502 16:47:42.143820 2050462464 net.cpp:380] relu2 <- conv2
I0502 16:47:42.143826 2050462464 net.cpp:327] relu2 -> conv2 (in-place)
I0502 16:47:42.143836 2050462464 net.cpp:113] Setting up relu2
I0502 16:47:42.143862 2050462464 net.cpp:120] Top shape: 64 256 27 27 (11943936)
I0502 16:47:42.143884 2050462464 layer_factory.hpp:74] Creating layer pool2
I0502 16:47:42.143920 2050462464 net.cpp:84] Creating Layer pool2
I0502 16:47:42.143937 2050462464 net.cpp:380] pool2 <- conv2
I0502 16:47:42.143952 2050462464 net.cpp:338] pool2 -> pool2
I0502 16:47:42.143970 2050462464 net.cpp:113] Setting up pool2
I0502 16:47:42.143996 2050462464 net.cpp:120] Top shape: 64 256 13 13 (2768896)
I0502 16:47:42.144009 2050462464 layer_factory.hpp:74] Creating layer norm2
I0502 16:47:42.144023 2050462464 net.cpp:84] Creating Layer norm2
I0502 16:47:42.144054 2050462464 net.cpp:380] norm2 <- pool2
I0502 16:47:42.144095 2050462464 net.cpp:338] norm2 -> norm2
I0502 16:47:42.144127 2050462464 net.cpp:113] Setting up norm2
I0502 16:47:42.144142 2050462464 net.cpp:120] Top shape: 64 256 13 13 (2768896)
I0502 16:47:42.144165 2050462464 layer_factory.hpp:74] Creating layer conv3
I0502 16:47:42.144193 2050462464 net.cpp:84] Creating Layer conv3
I0502 16:47:42.144209 2050462464 net.cpp:380] conv3 <- norm2
I0502 16:47:42.144235 2050462464 net.cpp:338] conv3 -> conv3
I0502 16:47:42.144251 2050462464 net.cpp:113] Setting up conv3
I0502 16:47:42.166776 2050462464 net.cpp:120] Top shape: 64 384 13 13 (4153344)
I0502 16:47:42.166826 2050462464 layer_factory.hpp:74] Creating layer relu3
I0502 16:47:42.166838 2050462464 net.cpp:84] Creating Layer relu3
I0502 16:47:42.166846 2050462464 net.cpp:380] relu3 <- conv3
I0502 16:47:42.166854 2050462464 net.cpp:327] relu3 -> conv3 (in-place)
I0502 16:47:42.166864 2050462464 net.cpp:113] Setting up relu3
I0502 16:47:42.166872 2050462464 net.cpp:120] Top shape: 64 384 13 13 (4153344)
I0502 16:47:42.166879 2050462464 layer_factory.hpp:74] Creating layer conv4
I0502 16:47:42.166889 2050462464 net.cpp:84] Creating Layer conv4
I0502 16:47:42.166896 2050462464 net.cpp:380] conv4 <- conv3
I0502 16:47:42.166905 2050462464 net.cpp:338] conv4 -> conv4
I0502 16:47:42.166915 2050462464 net.cpp:113] Setting up conv4
I0502 16:47:42.182893 2050462464 net.cpp:120] Top shape: 64 384 13 13 (4153344)
I0502 16:47:42.182920 2050462464 layer_factory.hpp:74] Creating layer relu4
I0502 16:47:42.182934 2050462464 net.cpp:84] Creating Layer relu4
I0502 16:47:42.182942 2050462464 net.cpp:380] relu4 <- conv4
I0502 16:47:42.182952 2050462464 net.cpp:327] relu4 -> conv4 (in-place)
I0502 16:47:42.182963 2050462464 net.cpp:113] Setting up relu4
I0502 16:47:42.182971 2050462464 net.cpp:120] Top shape: 64 384 13 13 (4153344)
I0502 16:47:42.182982 2050462464 layer_factory.hpp:74] Creating layer conv5
I0502 16:47:42.183002 2050462464 net.cpp:84] Creating Layer conv5
I0502 16:47:42.183010 2050462464 net.cpp:380] conv5 <- conv4
I0502 16:47:42.183020 2050462464 net.cpp:338] conv5 -> conv5
I0502 16:47:42.183028 2050462464 net.cpp:113] Setting up conv5
I0502 16:47:42.190143 2050462464 net.cpp:120] Top shape: 64 256 13 13 (2768896)
I0502 16:47:42.190176 2050462464 layer_factory.hpp:74] Creating layer relu5
I0502 16:47:42.190187 2050462464 net.cpp:84] Creating Layer relu5
I0502 16:47:42.190193 2050462464 net.cpp:380] relu5 <- conv5
I0502 16:47:42.190201 2050462464 net.cpp:327] relu5 -> conv5 (in-place)
I0502 16:47:42.190219 2050462464 net.cpp:113] Setting up relu5
I0502 16:47:42.190224 2050462464 net.cpp:120] Top shape: 64 256 13 13 (2768896)
I0502 16:47:42.190232 2050462464 layer_factory.hpp:74] Creating layer pool5
I0502 16:47:42.190242 2050462464 net.cpp:84] Creating Layer pool5
I0502 16:47:42.190245 2050462464 net.cpp:380] pool5 <- conv5
I0502 16:47:42.190251 2050462464 net.cpp:338] pool5 -> pool5
I0502 16:47:42.190292 2050462464 net.cpp:113] Setting up pool5
I0502 16:47:42.190313 2050462464 net.cpp:120] Top shape: 64 256 6 6 (589824)
I0502 16:47:42.190323 2050462464 layer_factory.hpp:74] Creating layer fc6
I0502 16:47:42.190333 2050462464 net.cpp:84] Creating Layer fc6
I0502 16:47:42.190338 2050462464 net.cpp:380] fc6 <- pool5
I0502 16:47:42.190346 2050462464 net.cpp:338] fc6 -> fc6
I0502 16:47:42.190356 2050462464 net.cpp:113] Setting up fc6
I0502 16:47:42.863700 2050462464 net.cpp:120] Top shape: 64 4096 (262144)
I0502 16:47:42.863737 2050462464 layer_factory.hpp:74] Creating layer relu6
I0502 16:47:42.863749 2050462464 net.cpp:84] Creating Layer relu6
I0502 16:47:42.863755 2050462464 net.cpp:380] relu6 <- fc6
I0502 16:47:42.863764 2050462464 net.cpp:327] relu6 -> fc6 (in-place)
I0502 16:47:42.863772 2050462464 net.cpp:113] Setting up relu6
I0502 16:47:42.863778 2050462464 net.cpp:120] Top shape: 64 4096 (262144)
I0502 16:47:42.863783 2050462464 layer_factory.hpp:74] Creating layer drop6
I0502 16:47:42.863791 2050462464 net.cpp:84] Creating Layer drop6
I0502 16:47:42.863797 2050462464 net.cpp:380] drop6 <- fc6
I0502 16:47:42.863807 2050462464 net.cpp:327] drop6 -> fc6 (in-place)
I0502 16:47:42.863818 2050462464 net.cpp:113] Setting up drop6
I0502 16:47:42.863827 2050462464 net.cpp:120] Top shape: 64 4096 (262144)
I0502 16:47:42.863833 2050462464 layer_factory.hpp:74] Creating layer fc7
I0502 16:47:42.863842 2050462464 net.cpp:84] Creating Layer fc7
I0502 16:47:42.863847 2050462464 net.cpp:380] fc7 <- fc6
I0502 16:47:42.863852 2050462464 net.cpp:338] fc7 -> fc7
I0502 16:47:42.863862 2050462464 net.cpp:113] Setting up fc7
I0502 16:47:43.140831 2050462464 net.cpp:120] Top shape: 64 4096 (262144)
I0502 16:47:43.140913 2050462464 layer_factory.hpp:74] Creating layer relu7
I0502 16:47:43.140924 2050462464 net.cpp:84] Creating Layer relu7
I0502 16:47:43.140929 2050462464 net.cpp:380] relu7 <- fc7
I0502 16:47:43.140936 2050462464 net.cpp:327] relu7 -> fc7 (in-place)
I0502 16:47:43.140944 2050462464 net.cpp:113] Setting up relu7
I0502 16:47:43.140949 2050462464 net.cpp:120] Top shape: 64 4096 (262144)
I0502 16:47:43.140954 2050462464 layer_factory.hpp:74] Creating layer drop7
I0502 16:47:43.140961 2050462464 net.cpp:84] Creating Layer drop7
I0502 16:47:43.140965 2050462464 net.cpp:380] drop7 <- fc7
I0502 16:47:43.140971 2050462464 net.cpp:327] drop7 -> fc7 (in-place)
I0502 16:47:43.140977 2050462464 net.cpp:113] Setting up drop7
I0502 16:47:43.140982 2050462464 net.cpp:120] Top shape: 64 4096 (262144)
I0502 16:47:43.140987 2050462464 layer_factory.hpp:74] Creating layer fc8_VOC
I0502 16:47:43.140995 2050462464 net.cpp:84] Creating Layer fc8_VOC
I0502 16:47:43.141000 2050462464 net.cpp:380] fc8_VOC <- fc7
I0502 16:47:43.141005 2050462464 net.cpp:338] fc8_VOC -> fc8_VOC
I0502 16:47:43.141016 2050462464 net.cpp:113] Setting up fc8_VOC
I0502 16:47:43.141440 2050462464 net.cpp:120] Top shape: 64 6 (384)
I0502 16:47:43.141463 2050462464 layer_factory.hpp:74] Creating layer fc8_VOC_fc8_VOC_0_split
I0502 16:47:43.141471 2050462464 net.cpp:84] Creating Layer fc8_VOC_fc8_VOC_0_split
I0502 16:47:43.141476 2050462464 net.cpp:380] fc8_VOC_fc8_VOC_0_split <- fc8_VOC
I0502 16:47:43.141484 2050462464 net.cpp:338] fc8_VOC_fc8_VOC_0_split -> fc8_VOC_fc8_VOC_0_split_0
I0502 16:47:43.141494 2050462464 net.cpp:338] fc8_VOC_fc8_VOC_0_split -> fc8_VOC_fc8_VOC_0_split_1
I0502 16:47:43.141500 2050462464 net.cpp:113] Setting up fc8_VOC_fc8_VOC_0_split
I0502 16:47:43.141507 2050462464 net.cpp:120] Top shape: 64 6 (384)
I0502 16:47:43.141512 2050462464 net.cpp:120] Top shape: 64 6 (384)
I0502 16:47:43.141517 2050462464 layer_factory.hpp:74] Creating layer accuracy
I0502 16:47:43.141530 2050462464 net.cpp:84] Creating Layer accuracy
I0502 16:47:43.141535 2050462464 net.cpp:380] accuracy <- fc8_VOC_fc8_VOC_0_split_0
I0502 16:47:43.141541 2050462464 net.cpp:380] accuracy <- label_data_1_split_0
I0502 16:47:43.141547 2050462464 net.cpp:338] accuracy -> accuracy
I0502 16:47:43.141554 2050462464 net.cpp:113] Setting up accuracy
…
I0502 17:31:54.882647 2050462464 solver.cpp:154] Creating test net (#0) specified by net file: train_val_background.prototxt
I0502 17:31:54.882711 2050462464 net.cpp:257] The NetState phase (1) differed from the phase (0) specified by a rule in layer data
I0502 17:31:54.882745 2050462464 net.cpp:42] Initializing net from parameters: 
name: "CaffeNet"
state {
  phase: TEST
}
layer {
  name: "data"
  type: "ImageData"
  top: "data"
  top: "label"
  include {
    phase: TEST
  }
  transform_param {
    mirror: false
    crop_size: 227
    mean_value: 104
    mean_value: 117
    mean_value: 123
  }
  image_data_param {
    source: "../test_list.txt"
    batch_size: 64
  }
}
layer {
  name: "conv1"
  type: "Convolution"
  bottom: "data"
  top: "conv1"
  param {
    lr_mult: 1
    decay_mult: 1
  }
  param {
    lr_mult: 2
    decay_mult: 0
  }
  convolution_param {
    num_output: 96
    kernel_size: 11
    stride: 4
    weight_filler {
      type: "gaussian"
      std: 0.01
    }
    bias_filler {
      type: "constant"
      value: 0
    }
  }
}
layer {
  name: "relu1"
  type: "ReLU"
  bottom: "conv1"
  top: "conv1"
}
layer {
  name: "pool1"
  type: "Pooling"
  bottom: "conv1"
  top: "pool1"
  pooling_param {
    pool: MAX
    kernel_size: 3
    stride: 2
  }
}
layer {
  name: "norm1"
  type: "LRN"
  bottom: "pool1"
  top: "norm1"
  lrn_param {
    local_size: 5
    alpha: 0.0001
    beta: 0.75
  }
}
layer {
  name: "conv2"
  type: "Convolution"
  bottom: "norm1"
  top: "conv2"
  param {
    lr_mult: 1
    decay_mult: 1
  }
  param {
    lr_mult: 2
    decay_mult: 0
  }
  convolution_param {
    num_output: 256
    pad: 2
    kernel_size: 5
    group: 2
    weight_filler {
      type: "gaussian"
      std: 0.01
    }
    bias_filler {
      type: "constant"
      value: 1
    }
  }
}
layer {
  name: "relu2"
  type: "ReLU"
  bottom: "conv2"
  top: "conv2"
}
layer {
  name: "pool2"
  type: "Pooling"
  bottom: "conv2"
  top: "pool2"
  pooling_param {
    pool: MAX
    kernel_size: 3
    stride: 2
  }
}
layer {
  name: "norm2"
  type: "LRN"
  bottom: "pool2"
  top: "norm2"
  lrn_param {
    local_size: 5
    alpha: 0.0001
    beta: 0.75
  }
}
layer {
  name: "conv3"
  type: "Convolution"
  bottom: "norm2"
  top: "conv3"
  param {
    lr_mult: 1
    decay_mult: 1
  }
  param {
    lr_mult: 2
    decay_mult: 0
  }
  convolution_param {
    num_output: 384
    pad: 1
    kernel_size: 3
    weight_filler {
      type: "gaussian"
      std: 0.01
    }
    bias_filler {
      type: "constant"
      value: 0
    }
  }
}
layer {
  name: "relu3"
  type: "ReLU"
  bottom: "conv3"
  top: "conv3"
}
layer {
  name: "conv4"
  type: "Convolution"
  bottom: "conv3"
  top: "conv4"
  param {
    lr_mult: 1
    decay_mult: 1
  }
  param {
    lr_mult: 2
    decay_mult: 0
  }
  convolution_param {
    num_output: 384
    pad: 1
    kernel_size: 3
    group: 2
    weight_filler {
      type: "gaussian"
      std: 0.01
    }
    bias_filler {
      type: "constant"
      value: 1
    }
  }
}
layer {
  name: "relu4"
  type: "ReLU"
  bottom: "conv4"
  top: "conv4"
}
layer {
  name: "conv5"
  type: "Convolution"
  bottom: "conv4"
  top: "conv5"
  param {
    lr_mult: 1
    decay_mult: 1
  }
  param {
    lr_mult: 2
    decay_mult: 0
  }
  convolution_param {
    num_output: 256
    pad: 1
    kernel_size: 3
    group: 2
    weight_filler {
      type: "gaussian"
      std: 0.01
    }
    bias_filler {
      type: "constant"
      value: 1
    }
  }
}
layer {
  name: "relu5"
  type: "ReLU"
  bottom: "conv5"
  top: "conv5"
}
layer {
  name: "pool5"
  type: "Pooling"
  bottom: "conv5"
  top: "pool5"
  pooling_param {
    pool: MAX
    kernel_size: 3
    stride: 2
  }
}
layer {
  name: "fc6"
  type: "InnerProduct"
  bottom: "pool5"
  top: "fc6"
  param {
    lr_mult: 1
    decay_mult: 1
  }
  param {
    lr_mult: 2
    decay_mult: 0
  }
  inner_product_param {
    num_output: 4096
    weight_filler {
      type: "gaussian"
      std: 0.005
    }
    bias_filler {
      type: "constant"
      value: 1
    }
  }
}
layer {
  name: "relu6"
  type: "ReLU"
  bottom: "fc6"
  top: "fc6"
}
layer {
  name: "drop6"
  type: "Dropout"
  bottom: "fc6"
  top: "fc6"
  dropout_param {
    dropout_ratio: 0.5
  }
}
layer {
  name: "fc7"
  type: "InnerProduct"
  bottom: "fc6"
  top: "fc7"
  param {
    lr_mult: 1
    decay_mult: 1
  }
  param {
    lr_mult: 2
    decay_mult: 0
  }
  inner_product_param {
    num_output: 4096
    weight_filler {
      type: "gaussian"
      std: 0.005
    }
    bias_filler {
      type: "constant"
      value: 1
    }
  }
}
layer {
  name: "relu7"
  type: "ReLU"
  bottom: "fc7"
  top: "fc7"
}
layer {
  name: "drop7"
  type: "Dropout"
  bottom: "fc7"
  top: "fc7"
  dropout_param {
    dropout_ratio: 0.5
  }
}
layer {
  name: "fc8_VOC"
  type: "InnerProduct"
  bottom: "fc7"
  top: "fc8_VOC"
  param {
    lr_mult: 10
    decay_mult: 1
  }
  param {
    lr_mult: 20
    decay_mult: 0
  }
  inner_product_param {
    num_output: 6
    weight_filler {
      type: "gaussian"
      std: 0.01
    }
    bias_filler {
      type: "constant"
      value: 0
    }
  }
}
layer {
  name: "accuracy"
  type: "Accuracy"
  bottom: "fc8_VOC"
  bottom: "label"
  top: "accuracy"
  include {
    phase: TEST
  }
}
layer {
  name: "loss"
  type: "SoftmaxWithLoss"
  bottom: "fc8_VOC"
  bottom: "label"
  top: "loss"
}
I0502 17:31:54.883456 2050462464 layer_factory.hpp:74] Creating layer data
I0502 17:31:54.883479 2050462464 net.cpp:84] Creating Layer data
I0502 17:31:54.883491 2050462464 net.cpp:338] data -> data
I0502 17:31:54.883510 2050462464 net.cpp:338] data -> label
I0502 17:31:54.883524 2050462464 net.cpp:113] Setting up data
I0502 17:31:54.883533 2050462464 image_data_layer.cpp:36] Opening file ../test_list.txt
I0502 17:31:54.889894 2050462464 image_data_layer.cpp:51] A total of 3703 images.
I0502 17:31:54.892276 2050462464 image_data_layer.cpp:80] output data size: 64,3,227,227
I0502 17:31:54.913990 2050462464 net.cpp:120] Top shape: 64 3 227 227 (9893568)
I0502 17:31:54.914027 2050462464 net.cpp:120] Top shape: 64 (64)
I0502 17:31:54.914039 2050462464 layer_factory.hpp:74] Creating layer label_data_1_split
I0502 17:31:54.914142 2050462464 net.cpp:84] Creating Layer label_data_1_split
I0502 17:31:54.914157 2050462464 net.cpp:380] label_data_1_split <- label
I0502 17:31:54.914165 2050462464 net.cpp:338] label_data_1_split -> label_data_1_split_0
I0502 17:31:54.914175 2050462464 net.cpp:338] label_data_1_split -> label_data_1_split_1
I0502 17:31:54.914182 2050462464 net.cpp:113] Setting up label_data_1_split
I0502 17:31:54.914188 2050462464 net.cpp:120] Top shape: 64 (64)
I0502 17:31:54.914194 2050462464 net.cpp:120] Top shape: 64 (64)
I0502 17:31:54.914232 2050462464 layer_factory.hpp:74] Creating layer conv1
I0502 17:31:54.914258 2050462464 net.cpp:84] Creating Layer conv1
I0502 17:31:54.914268 2050462464 net.cpp:380] conv1 <- data
I0502 17:31:54.914281 2050462464 net.cpp:338] conv1 -> conv1
I0502 17:31:54.914291 2050462464 net.cpp:113] Setting up conv1
I0502 17:31:54.915078 2050462464 net.cpp:120] Top shape: 64 96 55 55 (18585600)
I0502 17:31:54.915191 2050462464 layer_factory.hpp:74] Creating layer relu1
I0502 17:31:54.915210 2050462464 net.cpp:84] Creating Layer relu1
I0502 17:31:54.915215 2050462464 net.cpp:380] relu1 <- conv1
I0502 17:31:54.915221 2050462464 net.cpp:327] relu1 -> conv1 (in-place)
I0502 17:31:54.915228 2050462464 net.cpp:113] Setting up relu1
I0502 17:31:54.915232 2050462464 net.cpp:120] Top shape: 64 96 55 55 (18585600)
I0502 17:31:54.915240 2050462464 layer_factory.hpp:74] Creating layer pool1
I0502 17:31:54.915251 2050462464 net.cpp:84] Creating Layer pool1
I0502 17:31:54.915256 2050462464 net.cpp:380] pool1 <- conv1
I0502 17:31:54.915262 2050462464 net.cpp:338] pool1 -> pool1
I0502 17:31:54.915269 2050462464 net.cpp:113] Setting up pool1
I0502 17:31:54.915277 2050462464 net.cpp:120] Top shape: 64 96 27 27 (4478976)
I0502 17:31:54.915282 2050462464 layer_factory.hpp:74] Creating layer norm1
I0502 17:31:54.915289 2050462464 net.cpp:84] Creating Layer norm1
I0502 17:31:54.915293 2050462464 net.cpp:380] norm1 <- pool1
I0502 17:31:54.915298 2050462464 net.cpp:338] norm1 -> norm1
I0502 17:31:54.915305 2050462464 net.cpp:113] Setting up norm1
I0502 17:31:54.915310 2050462464 net.cpp:120] Top shape: 64 96 27 27 (4478976)
I0502 17:31:54.915316 2050462464 layer_factory.hpp:74] Creating layer conv2
I0502 17:31:54.915323 2050462464 net.cpp:84] Creating Layer conv2
I0502 17:31:54.915330 2050462464 net.cpp:380] conv2 <- norm1
I0502 17:31:54.915369 2050462464 net.cpp:338] conv2 -> conv2
I0502 17:31:54.915392 2050462464 net.cpp:113] Setting up conv2
I0502 17:31:54.922431 2050462464 net.cpp:120] Top shape: 64 256 27 27 (11943936)
I0502 17:31:54.922464 2050462464 layer_factory.hpp:74] Creating layer relu2
I0502 17:31:54.922474 2050462464 net.cpp:84] Creating Layer relu2
I0502 17:31:54.922480 2050462464 net.cpp:380] relu2 <- conv2
I0502 17:31:54.922487 2050462464 net.cpp:327] relu2 -> conv2 (in-place)
I0502 17:31:54.922494 2050462464 net.cpp:113] Setting up relu2
I0502 17:31:54.922509 2050462464 net.cpp:120] Top shape: 64 256 27 27 (11943936)
I0502 17:31:54.922529 2050462464 layer_factory.hpp:74] Creating layer pool2
I0502 17:31:54.922545 2050462464 net.cpp:84] Creating Layer pool2
I0502 17:31:54.922551 2050462464 net.cpp:380] pool2 <- conv2
I0502 17:31:54.922559 2050462464 net.cpp:338] pool2 -> pool2
I0502 17:31:54.922566 2050462464 net.cpp:113] Setting up pool2
I0502 17:31:54.922574 2050462464 net.cpp:120] Top shape: 64 256 13 13 (2768896)
I0502 17:31:54.922580 2050462464 layer_factory.hpp:74] Creating layer norm2
I0502 17:31:54.922587 2050462464 net.cpp:84] Creating Layer norm2
I0502 17:31:54.922592 2050462464 net.cpp:380] norm2 <- pool2
I0502 17:31:54.922598 2050462464 net.cpp:338] norm2 -> norm2
I0502 17:31:54.922605 2050462464 net.cpp:113] Setting up norm2
I0502 17:31:54.922612 2050462464 net.cpp:120] Top shape: 64 256 13 13 (2768896)
I0502 17:31:54.922622 2050462464 layer_factory.hpp:74] Creating layer conv3
I0502 17:31:54.922636 2050462464 net.cpp:84] Creating Layer conv3
I0502 17:31:54.922641 2050462464 net.cpp:380] conv3 <- norm2
I0502 17:31:54.922652 2050462464 net.cpp:338] conv3 -> conv3
I0502 17:31:54.922660 2050462464 net.cpp:113] Setting up conv3
I0502 17:31:54.939443 2050462464 net.cpp:120] Top shape: 64 384 13 13 (4153344)
I0502 17:31:54.939471 2050462464 layer_factory.hpp:74] Creating layer relu3
I0502 17:31:54.939486 2050462464 net.cpp:84] Creating Layer relu3
I0502 17:31:54.939491 2050462464 net.cpp:380] relu3 <- conv3
I0502 17:31:54.939497 2050462464 net.cpp:327] relu3 -> conv3 (in-place)
I0502 17:31:54.939504 2050462464 net.cpp:113] Setting up relu3
I0502 17:31:54.939509 2050462464 net.cpp:120] Top shape: 64 384 13 13 (4153344)
I0502 17:31:54.939515 2050462464 layer_factory.hpp:74] Creating layer conv4
I0502 17:31:54.939546 2050462464 net.cpp:84] Creating Layer conv4
I0502 17:31:54.939561 2050462464 net.cpp:380] conv4 <- conv3
I0502 17:31:54.939575 2050462464 net.cpp:338] conv4 -> conv4
I0502 17:31:54.939610 2050462464 net.cpp:113] Setting up conv4
I0502 17:31:54.951156 2050462464 net.cpp:120] Top shape: 64 384 13 13 (4153344)
I0502 17:31:54.951218 2050462464 layer_factory.hpp:74] Creating layer relu4
I0502 17:31:54.951242 2050462464 net.cpp:84] Creating Layer relu4
I0502 17:31:54.951252 2050462464 net.cpp:380] relu4 <- conv4
I0502 17:31:54.951264 2050462464 net.cpp:327] relu4 -> conv4 (in-place)
I0502 17:31:54.951277 2050462464 net.cpp:113] Setting up relu4
I0502 17:31:54.951287 2050462464 net.cpp:120] Top shape: 64 384 13 13 (4153344)
I0502 17:31:54.951297 2050462464 layer_factory.hpp:74] Creating layer conv5
I0502 17:31:54.951311 2050462464 net.cpp:84] Creating Layer conv5
I0502 17:31:54.951319 2050462464 net.cpp:380] conv5 <- conv4
I0502 17:31:54.951361 2050462464 net.cpp:338] conv5 -> conv5
I0502 17:31:54.951380 2050462464 net.cpp:113] Setting up conv5
I0502 17:31:54.960311 2050462464 net.cpp:120] Top shape: 64 256 13 13 (2768896)
I0502 17:31:54.960347 2050462464 layer_factory.hpp:74] Creating layer relu5
I0502 17:31:54.960358 2050462464 net.cpp:84] Creating Layer relu5
I0502 17:31:54.960364 2050462464 net.cpp:380] relu5 <- conv5
I0502 17:31:54.960371 2050462464 net.cpp:327] relu5 -> conv5 (in-place)
I0502 17:31:54.960378 2050462464 net.cpp:113] Setting up relu5
I0502 17:31:54.960383 2050462464 net.cpp:120] Top shape: 64 256 13 13 (2768896)
I0502 17:31:54.960389 2050462464 layer_factory.hpp:74] Creating layer pool5
I0502 17:31:54.960433 2050462464 net.cpp:84] Creating Layer pool5
I0502 17:31:54.960441 2050462464 net.cpp:380] pool5 <- conv5
I0502 17:31:54.960451 2050462464 net.cpp:338] pool5 -> pool5
I0502 17:31:54.960463 2050462464 net.cpp:113] Setting up pool5
I0502 17:31:54.960470 2050462464 net.cpp:120] Top shape: 64 256 6 6 (589824)
I0502 17:31:54.960476 2050462464 layer_factory.hpp:74] Creating layer fc6
I0502 17:31:54.960484 2050462464 net.cpp:84] Creating Layer fc6
I0502 17:31:54.960489 2050462464 net.cpp:380] fc6 <- pool5
I0502 17:31:54.960494 2050462464 net.cpp:338] fc6 -> fc6
I0502 17:31:54.960501 2050462464 net.cpp:113] Setting up fc6
^C
C02MX066FD58:rcc_net cusgadmin$ caffe train -solver solver_background.prototxt -weights bvlc_reference_rcnn_ilsvrc13.caffemodel 
…
