…
I0430 19:24:31.507649 2050462464 net.cpp:257] The NetState phase (0) differed from the phase (1) specified by a rule in layer accuracy
I0430 19:24:31.507658 2050462464 net.cpp:42] Initializing net from parameters: 
name: "CaffeNet"
state {
  phase: TRAIN
}
layer {
  name: "data"
  type: "ImageData"
  top: "data"
  top: "label"
  include {
    phase: TRAIN
  }
  transform_param {
    mirror: true
    crop_size: 227
    mean_value: 104
    mean_value: 117
    mean_value: 123
  }
  image_data_param {
    source: "../train_list.txt"
    batch_size: 64
  }
}
layer {
  name: "conv1"
  type: "Convolution"
  bottom: "data"
  top: "conv1"
  param {
    lr_mult: 1
    decay_mult: 1
  }
  param {
    lr_mult: 2
    decay_mult: 0
  }
  convolution_param {
    num_output: 96
    kernel_size: 11
    stride: 4
    weight_filler {
      type: "gaussian"
      std: 0.01
    }
    bias_filler {
      type: "constant"
      value: 0
    }
  }
}
layer {
  name: "relu1"
  type: "ReLU"
  bottom: "conv1"
  top: "conv1"
}
layer {
  name: "pool1"
  type: "Pooling"
  bottom: "conv1"
  top: "pool1"
  pooling_param {
    pool: MAX
    kernel_size: 3
    stride: 2
  }
}
layer {
  name: "norm1"
  type: "LRN"
  bottom: "pool1"
  top: "norm1"
  lrn_param {
    local_size: 5
    alpha: 0.0001
    beta: 0.75
  }
}
layer {
  name: "conv2"
  type: "Convolution"
  bottom: "norm1"
  top: "conv2"
  param {
    lr_mult: 1
    decay_mult: 1
  }
  param {
    lr_mult: 2
    decay_mult: 0
  }
  convolution_param {
    num_output: 256
    pad: 2
    kernel_size: 5
    group: 2
    weight_filler {
      type: "gaussian"
      std: 0.01
    }
    bias_filler {
      type: "constant"
      value: 1
    }
  }
}
layer {
  name: "relu2"
  type: "ReLU"
  bottom: "conv2"
  top: "conv2"
}
layer {
  name: "pool2"
  type: "Pooling"
  bottom: "conv2"
  top: "pool2"
  pooling_param {
    pool: MAX
    kernel_size: 3
    stride: 2
  }
}
layer {
  name: "norm2"
  type: "LRN"
  bottom: "pool2"
  top: "norm2"
  lrn_param {
    local_size: 5
    alpha: 0.0001
    beta: 0.75
  }
}
layer {
  name: "conv3"
  type: "Convolution"
  bottom: "norm2"
  top: "conv3"
  param {
    lr_mult: 1
    decay_mult: 1
  }
  param {
    lr_mult: 2
    decay_mult: 0
  }
  convolution_param {
    num_output: 384
    pad: 1
    kernel_size: 3
    weight_filler {
      type: "gaussian"
      std: 0.01
    }
    bias_filler {
      type: "constant"
      value: 0
    }
  }
}
layer {
  name: "relu3"
  type: "ReLU"
  bottom: "conv3"
  top: "conv3"
}
layer {
  name: "conv4"
  type: "Convolution"
  bottom: "conv3"
  top: "conv4"
  param {
    lr_mult: 1
    decay_mult: 1
  }
  param {
    lr_mult: 2
    decay_mult: 0
  }
  convolution_param {
    num_output: 384
    pad: 1
    kernel_size: 3
    group: 2
    weight_filler {
      type: "gaussian"
      std: 0.01
    }
    bias_filler {
      type: "constant"
      value: 1
    }
  }
}
layer {
  name: "relu4"
  type: "ReLU"
  bottom: "conv4"
  top: "conv4"
}
layer {
  name: "conv5"
  type: "Convolution"
  bottom: "conv4"
  top: "conv5"
  param {
    lr_mult: 1
    decay_mult: 1
  }
  param {
    lr_mult: 2
    decay_mult: 0
  }
  convolution_param {
    num_output: 256
    pad: 1
    kernel_size: 3
    group: 2
    weight_filler {
      type: "gaussian"
      std: 0.01
    }
    bias_filler {
      type: "constant"
      value: 1
    }
  }
}
layer {
  name: "relu5"
  type: "ReLU"
  bottom: "conv5"
  top: "conv5"
}
layer {
  name: "pool5"
  type: "Pooling"
  bottom: "conv5"
  top: "pool5"
  pooling_param {
    pool: MAX
    kernel_size: 3
    stride: 2
  }
}
layer {
  name: "fc6"
  type: "InnerProduct"
  bottom: "pool5"
  top: "fc6"
  param {
    lr_mult: 1
    decay_mult: 1
  }
  param {
    lr_mult: 2
    decay_mult: 0
  }
  inner_product_param {
    num_output: 4096
    weight_filler {
      type: "gaussian"
      std: 0.005
    }
    bias_filler {
      type: "constant"
      value: 1
    }
  }
}
layer {
  name: "relu6"
  type: "ReLU"
  bottom: "fc6"
  top: "fc6"
}
layer {
  name: "drop6"
  type: "Dropout"
  bottom: "fc6"
  top: "fc6"
  dropout_param {
    dropout_ratio: 0.5
  }
}
layer {
  name: "fc7"
  type: "InnerProduct"
  bottom: "fc6"
  top: "fc7"
  param {
    lr_mult: 1
    decay_mult: 1
  }
  param {
    lr_mult: 2
    decay_mult: 0
  }
  inner_product_param {
    num_output: 4096
    weight_filler {
      type: "gaussian"
      std: 0.005
    }
    bias_filler {
      type: "constant"
      value: 1
    }
  }
}
layer {
  name: "relu7"
  type: "ReLU"
  bottom: "fc7"
  top: "fc7"
}
layer {
  name: "drop7"
  type: "Dropout"
  bottom: "fc7"
  top: "fc7"
  dropout_param {
    dropout_ratio: 0.5
  }
}
layer {
  name: "fc8_VOC"
  type: "InnerProduct"
  bottom: "fc7"
  top: "fc8_VOC"
  param {
    lr_mult: 10
    decay_mult: 1
  }
  param {
    lr_mult: 20
    decay_mult: 0
  }
  inner_product_param {
    num_output: 5
    weight_filler {
      type: "gaussian"
      std: 0.01
    }
    bias_filler {
      type: "constant"
      value: 0
    }
  }
}
layer {
  name: "loss"
  type: "SoftmaxWithLoss"
  bottom: "fc8_VOC"
  bottom: "label"
  top: "loss"
}
I0430 19:24:31.508076 2050462464 layer_factory.hpp:74] Creating layer data
I0430 19:24:31.508102 2050462464 net.cpp:84] Creating Layer data
I0430 19:24:31.508111 2050462464 net.cpp:338] data -> data
I0430 19:24:31.508138 2050462464 net.cpp:338] data -> label
I0430 19:24:31.508147 2050462464 net.cpp:113] Setting up data
I0430 19:24:31.508162 2050462464 image_data_layer.cpp:36] Opening file ../train_list.txt
I0430 19:24:31.539923 2050462464 image_data_layer.cpp:51] A total of 19967 images.
I0430 19:24:31.542049 2050462464 image_data_layer.cpp:80] output data size: 64,3,227,227
I0430 19:24:31.570456 2050462464 net.cpp:120] Top shape: 64 3 227 227 (9893568)
I0430 19:24:31.570508 2050462464 net.cpp:120] Top shape: 64 (64)
I0430 19:24:31.570533 2050462464 layer_factory.hpp:74] Creating layer conv1
I0430 19:24:31.570551 2050462464 net.cpp:84] Creating Layer conv1
I0430 19:24:31.570561 2050462464 net.cpp:380] conv1 <- data
I0430 19:24:31.570575 2050462464 net.cpp:338] conv1 -> conv1
I0430 19:24:31.570654 2050462464 net.cpp:113] Setting up conv1
I0430 19:24:31.571465 2050462464 net.cpp:120] Top shape: 64 96 55 55 (18585600)
I0430 19:24:31.571488 2050462464 layer_factory.hpp:74] Creating layer relu1
I0430 19:24:31.571509 2050462464 net.cpp:84] Creating Layer relu1
I0430 19:24:31.571519 2050462464 net.cpp:380] relu1 <- conv1
I0430 19:24:31.571530 2050462464 net.cpp:327] relu1 -> conv1 (in-place)
I0430 19:24:31.571542 2050462464 net.cpp:113] Setting up relu1
I0430 19:24:31.571552 2050462464 net.cpp:120] Top shape: 64 96 55 55 (18585600)
I0430 19:24:31.571563 2050462464 layer_factory.hpp:74] Creating layer pool1
I0430 19:24:31.571576 2050462464 net.cpp:84] Creating Layer pool1
I0430 19:24:31.571584 2050462464 net.cpp:380] pool1 <- conv1
I0430 19:24:31.571596 2050462464 net.cpp:338] pool1 -> pool1
I0430 19:24:31.571615 2050462464 net.cpp:113] Setting up pool1
I0430 19:24:31.571643 2050462464 net.cpp:120] Top shape: 64 96 27 27 (4478976)
I0430 19:24:31.571656 2050462464 layer_factory.hpp:74] Creating layer norm1
I0430 19:24:31.571674 2050462464 net.cpp:84] Creating Layer norm1
I0430 19:24:31.571683 2050462464 net.cpp:380] norm1 <- pool1
I0430 19:24:31.571696 2050462464 net.cpp:338] norm1 -> norm1
I0430 19:24:31.571708 2050462464 net.cpp:113] Setting up norm1
I0430 19:24:31.571727 2050462464 net.cpp:120] Top shape: 64 96 27 27 (4478976)
I0430 19:24:31.571739 2050462464 layer_factory.hpp:74] Creating layer conv2
I0430 19:24:31.571753 2050462464 net.cpp:84] Creating Layer conv2
I0430 19:24:31.571797 2050462464 net.cpp:380] conv2 <- norm1
I0430 19:24:31.571812 2050462464 net.cpp:338] conv2 -> conv2
I0430 19:24:31.571831 2050462464 net.cpp:113] Setting up conv2
I0430 19:24:31.578548 2050462464 net.cpp:120] Top shape: 64 256 27 27 (11943936)
I0430 19:24:31.578577 2050462464 layer_factory.hpp:74] Creating layer relu2
I0430 19:24:31.578588 2050462464 net.cpp:84] Creating Layer relu2
I0430 19:24:31.578594 2050462464 net.cpp:380] relu2 <- conv2
I0430 19:24:31.578601 2050462464 net.cpp:327] relu2 -> conv2 (in-place)
I0430 19:24:31.578609 2050462464 net.cpp:113] Setting up relu2
I0430 19:24:31.578614 2050462464 net.cpp:120] Top shape: 64 256 27 27 (11943936)
I0430 19:24:31.578621 2050462464 layer_factory.hpp:74] Creating layer pool2
I0430 19:24:31.578629 2050462464 net.cpp:84] Creating Layer pool2
I0430 19:24:31.578634 2050462464 net.cpp:380] pool2 <- conv2
I0430 19:24:31.578640 2050462464 net.cpp:338] pool2 -> pool2
I0430 19:24:31.578647 2050462464 net.cpp:113] Setting up pool2
I0430 19:24:31.578655 2050462464 net.cpp:120] Top shape: 64 256 13 13 (2768896)
I0430 19:24:31.578660 2050462464 layer_factory.hpp:74] Creating layer norm2
I0430 19:24:31.578671 2050462464 net.cpp:84] Creating Layer norm2
I0430 19:24:31.578676 2050462464 net.cpp:380] norm2 <- pool2
I0430 19:24:31.578683 2050462464 net.cpp:338] norm2 -> norm2
I0430 19:24:31.578690 2050462464 net.cpp:113] Setting up norm2
I0430 19:24:31.578696 2050462464 net.cpp:120] Top shape: 64 256 13 13 (2768896)
I0430 19:24:31.578702 2050462464 layer_factory.hpp:74] Creating layer conv3
I0430 19:24:31.578711 2050462464 net.cpp:84] Creating Layer conv3
I0430 19:24:31.578716 2050462464 net.cpp:380] conv3 <- norm2
I0430 19:24:31.578722 2050462464 net.cpp:338] conv3 -> conv3
I0430 19:24:31.578734 2050462464 net.cpp:113] Setting up conv3
I0430 19:24:31.599406 2050462464 net.cpp:120] Top shape: 64 384 13 13 (4153344)
I0430 19:24:31.599436 2050462464 layer_factory.hpp:74] Creating layer relu3
I0430 19:24:31.599445 2050462464 net.cpp:84] Creating Layer relu3
I0430 19:24:31.599450 2050462464 net.cpp:380] relu3 <- conv3
I0430 19:24:31.599457 2050462464 net.cpp:327] relu3 -> conv3 (in-place)
I0430 19:24:31.599464 2050462464 net.cpp:113] Setting up relu3
I0430 19:24:31.599469 2050462464 net.cpp:120] Top shape: 64 384 13 13 (4153344)
I0430 19:24:31.599475 2050462464 layer_factory.hpp:74] Creating layer conv4
I0430 19:24:31.599493 2050462464 net.cpp:84] Creating Layer conv4
I0430 19:24:31.599498 2050462464 net.cpp:380] conv4 <- conv3
I0430 19:24:31.599505 2050462464 net.cpp:338] conv4 -> conv4
I0430 19:24:31.599522 2050462464 net.cpp:113] Setting up conv4
I0430 19:24:31.613883 2050462464 net.cpp:120] Top shape: 64 384 13 13 (4153344)
I0430 19:24:31.613908 2050462464 layer_factory.hpp:74] Creating layer relu4
I0430 19:24:31.613916 2050462464 net.cpp:84] Creating Layer relu4
I0430 19:24:31.613922 2050462464 net.cpp:380] relu4 <- conv4
I0430 19:24:31.613929 2050462464 net.cpp:327] relu4 -> conv4 (in-place)
I0430 19:24:31.613936 2050462464 net.cpp:113] Setting up relu4
I0430 19:24:31.613942 2050462464 net.cpp:120] Top shape: 64 384 13 13 (4153344)
I0430 19:24:31.613948 2050462464 layer_factory.hpp:74] Creating layer conv5
I0430 19:24:31.613956 2050462464 net.cpp:84] Creating Layer conv5
I0430 19:24:31.613961 2050462464 net.cpp:380] conv5 <- conv4
I0430 19:24:31.613989 2050462464 net.cpp:338] conv5 -> conv5
I0430 19:24:31.613999 2050462464 net.cpp:113] Setting up conv5
I0430 19:24:31.624213 2050462464 net.cpp:120] Top shape: 64 256 13 13 (2768896)
I0430 19:24:31.624243 2050462464 layer_factory.hpp:74] Creating layer relu5
I0430 19:24:31.624253 2050462464 net.cpp:84] Creating Layer relu5
I0430 19:24:31.624259 2050462464 net.cpp:380] relu5 <- conv5
I0430 19:24:31.624265 2050462464 net.cpp:327] relu5 -> conv5 (in-place)
I0430 19:24:31.624274 2050462464 net.cpp:113] Setting up relu5
I0430 19:24:31.624279 2050462464 net.cpp:120] Top shape: 64 256 13 13 (2768896)
I0430 19:24:31.624285 2050462464 layer_factory.hpp:74] Creating layer pool5
I0430 19:24:31.624316 2050462464 net.cpp:84] Creating Layer pool5
I0430 19:24:31.624321 2050462464 net.cpp:380] pool5 <- conv5
I0430 19:24:31.624328 2050462464 net.cpp:338] pool5 -> pool5
I0430 19:24:31.624336 2050462464 net.cpp:113] Setting up pool5
I0430 19:24:31.624344 2050462464 net.cpp:120] Top shape: 64 256 6 6 (589824)
I0430 19:24:31.624351 2050462464 layer_factory.hpp:74] Creating layer fc6
I0430 19:24:31.624361 2050462464 net.cpp:84] Creating Layer fc6
I0430 19:24:31.624366 2050462464 net.cpp:380] fc6 <- pool5
I0430 19:24:31.624373 2050462464 net.cpp:338] fc6 -> fc6
I0430 19:24:31.624382 2050462464 net.cpp:113] Setting up fc6
I0430 19:24:32.456959 2050462464 net.cpp:120] Top shape: 64 4096 (262144)
I0430 19:24:32.456997 2050462464 layer_factory.hpp:74] Creating layer relu6
I0430 19:24:32.457015 2050462464 net.cpp:84] Creating Layer relu6
I0430 19:24:32.457022 2050462464 net.cpp:380] relu6 <- fc6
I0430 19:24:32.457033 2050462464 net.cpp:327] relu6 -> fc6 (in-place)
I0430 19:24:32.457046 2050462464 net.cpp:113] Setting up relu6
I0430 19:24:32.457056 2050462464 net.cpp:120] Top shape: 64 4096 (262144)
I0430 19:24:32.457063 2050462464 layer_factory.hpp:74] Creating layer drop6
I0430 19:24:32.457074 2050462464 net.cpp:84] Creating Layer drop6
I0430 19:24:32.457082 2050462464 net.cpp:380] drop6 <- fc6
I0430 19:24:32.457093 2050462464 net.cpp:327] drop6 -> fc6 (in-place)
I0430 19:24:32.457103 2050462464 net.cpp:113] Setting up drop6
I0430 19:24:32.457120 2050462464 net.cpp:120] Top shape: 64 4096 (262144)
I0430 19:24:32.457129 2050462464 layer_factory.hpp:74] Creating layer fc7
I0430 19:24:32.457139 2050462464 net.cpp:84] Creating Layer fc7
I0430 19:24:32.457144 2050462464 net.cpp:380] fc7 <- fc6
I0430 19:24:32.457150 2050462464 net.cpp:338] fc7 -> fc7
I0430 19:24:32.457159 2050462464 net.cpp:113] Setting up fc7
I0430 19:24:32.888252 2050462464 net.cpp:120] Top shape: 64 4096 (262144)
I0430 19:24:32.888298 2050462464 layer_factory.hpp:74] Creating layer relu7
I0430 19:24:32.888317 2050462464 net.cpp:84] Creating Layer relu7
I0430 19:24:32.888325 2050462464 net.cpp:380] relu7 <- fc7
I0430 19:24:32.888336 2050462464 net.cpp:327] relu7 -> fc7 (in-place)
I0430 19:24:32.888347 2050462464 net.cpp:113] Setting up relu7
I0430 19:24:32.888355 2050462464 net.cpp:120] Top shape: 64 4096 (262144)
I0430 19:24:32.888363 2050462464 layer_factory.hpp:74] Creating layer drop7
I0430 19:24:32.888373 2050462464 net.cpp:84] Creating Layer drop7
I0430 19:24:32.888383 2050462464 net.cpp:380] drop7 <- fc7
I0430 19:24:32.888392 2050462464 net.cpp:327] drop7 -> fc7 (in-place)
I0430 19:24:32.888402 2050462464 net.cpp:113] Setting up drop7
I0430 19:24:32.888411 2050462464 net.cpp:120] Top shape: 64 4096 (262144)
I0430 19:24:32.888418 2050462464 layer_factory.hpp:74] Creating layer fc8_VOC
I0430 19:24:32.888430 2050462464 net.cpp:84] Creating Layer fc8_VOC
I0430 19:24:32.888437 2050462464 net.cpp:380] fc8_VOC <- fc7
I0430 19:24:32.888447 2050462464 net.cpp:338] fc8_VOC -> fc8_VOC
I0430 19:24:32.888458 2050462464 net.cpp:113] Setting up fc8_VOC
I0430 19:24:32.888885 2050462464 net.cpp:120] Top shape: 64 5 (320)
I0430 19:24:32.888902 2050462464 layer_factory.hpp:74] Creating layer loss
I0430 19:24:32.888917 2050462464 net.cpp:84] Creating Layer loss
I0430 19:24:32.888926 2050462464 net.cpp:380] loss <- fc8_VOC
I0430 19:24:32.888932 2050462464 net.cpp:380] loss <- label
I0430 19:24:32.888944 2050462464 net.cpp:338] loss -> loss
I0430 19:24:32.888957 2050462464 net.cpp:113] Setting up loss
I0430 19:24:32.888967 2050462464 layer_factory.hpp:74] Creating layer loss
…
I0430 19:24:32.889757 2050462464 solver.cpp:154] Creating test net (#0) specified by net file: train_val.prototxt
I0430 19:24:32.889832 2050462464 net.cpp:257] The NetState phase (1) differed from the phase (0) specified by a rule in layer data
I0430 19:24:32.889866 2050462464 net.cpp:42] Initializing net from parameters: 
name: "CaffeNet"
state {
  phase: TEST
}
layer {
  name: "data"
  type: "ImageData"
  top: "data"
  top: "label"
  include {
    phase: TEST
  }
  transform_param {
    mirror: false
    crop_size: 227
    mean_value: 104
    mean_value: 117
    mean_value: 123
  }
  image_data_param {
    source: "../test_list.txt"
    batch_size: 64
  }
}
layer {
  name: "conv1"
  type: "Convolution"
  bottom: "data"
  top: "conv1"
  param {
    lr_mult: 1
    decay_mult: 1
  }
  param {
    lr_mult: 2
    decay_mult: 0
  }
  convolution_param {
    num_output: 96
    kernel_size: 11
    stride: 4
    weight_filler {
      type: "gaussian"
      std: 0.01
    }
    bias_filler {
      type: "constant"
      value: 0
    }
  }
}
layer {
  name: "relu1"
  type: "ReLU"
  bottom: "conv1"
  top: "conv1"
}
layer {
  name: "pool1"
  type: "Pooling"
  bottom: "conv1"
  top: "pool1"
  pooling_param {
    pool: MAX
    kernel_size: 3
    stride: 2
  }
}
layer {
  name: "norm1"
  type: "LRN"
  bottom: "pool1"
  top: "norm1"
  lrn_param {
    local_size: 5
    alpha: 0.0001
    beta: 0.75
  }
}
layer {
  name: "conv2"
  type: "Convolution"
  bottom: "norm1"
  top: "conv2"
  param {
    lr_mult: 1
    decay_mult: 1
  }
  param {
    lr_mult: 2
    decay_mult: 0
  }
  convolution_param {
    num_output: 256
    pad: 2
    kernel_size: 5
    group: 2
    weight_filler {
      type: "gaussian"
      std: 0.01
    }
    bias_filler {
      type: "constant"
      value: 1
    }
  }
}
layer {
  name: "relu2"
  type: "ReLU"
  bottom: "conv2"
  top: "conv2"
}
layer {
  name: "pool2"
  type: "Pooling"
  bottom: "conv2"
  top: "pool2"
  pooling_param {
    pool: MAX
    kernel_size: 3
    stride: 2
  }
}
layer {
  name: "norm2"
  type: "LRN"
  bottom: "pool2"
  top: "norm2"
  lrn_param {
    local_size: 5
    alpha: 0.0001
    beta: 0.75
  }
}
layer {
  name: "conv3"
  type: "Convolution"
  bottom: "norm2"
  top: "conv3"
  param {
    lr_mult: 1
    decay_mult: 1
  }
  param {
    lr_mult: 2
    decay_mult: 0
  }
  convolution_param {
    num_output: 384
    pad: 1
    kernel_size: 3
    weight_filler {
      type: "gaussian"
      std: 0.01
    }
    bias_filler {
      type: "constant"
      value: 0
    }
  }
}
layer {
  name: "relu3"
  type: "ReLU"
  bottom: "conv3"
  top: "conv3"
}
layer {
  name: "conv4"
  type: "Convolution"
  bottom: "conv3"
  top: "conv4"
  param {
    lr_mult: 1
    decay_mult: 1
  }
  param {
    lr_mult: 2
    decay_mult: 0
  }
  convolution_param {
    num_output: 384
    pad: 1
    kernel_size: 3
    group: 2
    weight_filler {
      type: "gaussian"
      std: 0.01
    }
    bias_filler {
      type: "constant"
      value: 1
    }
  }
}
layer {
  name: "relu4"
  type: "ReLU"
  bottom: "conv4"
  top: "conv4"
}
layer {
  name: "conv5"
  type: "Convolution"
  bottom: "conv4"
  top: "conv5"
  param {
    lr_mult: 1
    decay_mult: 1
  }
  param {
    lr_mult: 2
    decay_mult: 0
  }
  convolution_param {
    num_output: 256
    pad: 1
    kernel_size: 3
    group: 2
    weight_filler {
      type: "gaussian"
      std: 0.01
    }
    bias_filler {
      type: "constant"
      value: 1
    }
  }
}
layer {
  name: "relu5"
  type: "ReLU"
  bottom: "conv5"
  top: "conv5"
}
layer {
  name: "pool5"
  type: "Pooling"
  bottom: "conv5"
  top: "pool5"
  pooling_param {
    pool: MAX
    kernel_size: 3
    stride: 2
  }
}
layer {
  name: "fc6"
  type: "InnerProduct"
  bottom: "pool5"
  top: "fc6"
  param {
    lr_mult: 1
    decay_mult: 1
  }
  param {
    lr_mult: 2
    decay_mult: 0
  }
  inner_product_param {
    num_output: 4096
    weight_filler {
      type: "gaussian"
      std: 0.005
    }
    bias_filler {
      type: "constant"
      value: 1
    }
  }
}
layer {
  name: "relu6"
  type: "ReLU"
  bottom: "fc6"
  top: "fc6"
}
layer {
  name: "drop6"
  type: "Dropout"
  bottom: "fc6"
  top: "fc6"
  dropout_param {
    dropout_ratio: 0.5
  }
}
layer {
  name: "fc7"
  type: "InnerProduct"
  bottom: "fc6"
  top: "fc7"
  param {
    lr_mult: 1
    decay_mult: 1
  }
  param {
    lr_mult: 2
    decay_mult: 0
  }
  inner_product_param {
    num_output: 4096
    weight_filler {
      type: "gaussian"
      std: 0.005
    }
    bias_filler {
      type: "constant"
      value: 1
    }
  }
}
layer {
  name: "relu7"
  type: "ReLU"
  bottom: "fc7"
  top: "fc7"
}
layer {
  name: "drop7"
  type: "Dropout"
  bottom: "fc7"
  top: "fc7"
  dropout_param {
    dropout_ratio: 0.5
  }
}
layer {
  name: "fc8_VOC"
  type: "InnerProduct"
  bottom: "fc7"
  top: "fc8_VOC"
  param {
    lr_mult: 10
    decay_mult: 1
  }
  param {
    lr_mult: 20
    decay_mult: 0
  }
  inner_product_param {
    num_output: 5
    weight_filler {
      type: "gaussian"
      std: 0.01
    }
    bias_filler {
      type: "constant"
      value: 0
    }
  }
}
layer {
  name: "accuracy"
  type: "Accuracy"
  bottom: "fc8_VOC"
  bottom: "label"
  top: "accuracy"
  include {
    phase: TEST
  }
}
layer {
  name: "loss"
  type: "SoftmaxWithLoss"
  bottom: "fc8_VOC"
  bottom: "label"
  top: "loss"
}
I0430 19:24:32.890607 2050462464 layer_factory.hpp:74] Creating layer data
I0430 19:24:32.890625 2050462464 net.cpp:84] Creating Layer data
I0430 19:24:32.890633 2050462464 net.cpp:338] data -> data
I0430 19:24:32.890645 2050462464 net.cpp:338] data -> label
I0430 19:24:32.890651 2050462464 net.cpp:113] Setting up data
I0430 19:24:32.890658 2050462464 image_data_layer.cpp:36] Opening file ../test_list.txt
I0430 19:24:32.893170 2050462464 image_data_layer.cpp:51] A total of 2249 images.
I0430 19:24:32.894289 2050462464 image_data_layer.cpp:80] output data size: 64,3,227,227
I0430 19:24:32.925014 2050462464 net.cpp:120] Top shape: 64 3 227 227 (9893568)
I0430 19:24:32.925055 2050462464 net.cpp:120] Top shape: 64 (64)
I0430 19:24:32.925073 2050462464 layer_factory.hpp:74] Creating layer label_data_1_split
I0430 19:24:32.925096 2050462464 net.cpp:84] Creating Layer label_data_1_split
I0430 19:24:32.925106 2050462464 net.cpp:380] label_data_1_split <- label
I0430 19:24:32.925163 2050462464 net.cpp:338] label_data_1_split -> label_data_1_split_0
I0430 19:24:32.925185 2050462464 net.cpp:338] label_data_1_split -> label_data_1_split_1
I0430 19:24:32.925199 2050462464 net.cpp:113] Setting up label_data_1_split
I0430 19:24:32.925211 2050462464 net.cpp:120] Top shape: 64 (64)
I0430 19:24:32.925222 2050462464 net.cpp:120] Top shape: 64 (64)
I0430 19:24:32.925232 2050462464 layer_factory.hpp:74] Creating layer conv1
I0430 19:24:32.925251 2050462464 net.cpp:84] Creating Layer conv1
I0430 19:24:32.925269 2050462464 net.cpp:380] conv1 <- data
I0430 19:24:32.925284 2050462464 net.cpp:338] conv1 -> conv1
I0430 19:24:32.925302 2050462464 net.cpp:113] Setting up conv1
I0430 19:24:32.926206 2050462464 net.cpp:120] Top shape: 64 96 55 55 (18585600)
I0430 19:24:32.926246 2050462464 layer_factory.hpp:74] Creating layer relu1
I0430 19:24:32.926262 2050462464 net.cpp:84] Creating Layer relu1
I0430 19:24:32.926272 2050462464 net.cpp:380] relu1 <- conv1
I0430 19:24:32.926285 2050462464 net.cpp:327] relu1 -> conv1 (in-place)
I0430 19:24:32.926297 2050462464 net.cpp:113] Setting up relu1
I0430 19:24:32.926307 2050462464 net.cpp:120] Top shape: 64 96 55 55 (18585600)
I0430 19:24:32.926319 2050462464 layer_factory.hpp:74] Creating layer pool1
I0430 19:24:32.926343 2050462464 net.cpp:84] Creating Layer pool1
I0430 19:24:32.926353 2050462464 net.cpp:380] pool1 <- conv1
I0430 19:24:32.926365 2050462464 net.cpp:338] pool1 -> pool1
I0430 19:24:32.926379 2050462464 net.cpp:113] Setting up pool1
I0430 19:24:32.926393 2050462464 net.cpp:120] Top shape: 64 96 27 27 (4478976)
I0430 19:24:32.926406 2050462464 layer_factory.hpp:74] Creating layer norm1
I0430 19:24:32.926419 2050462464 net.cpp:84] Creating Layer norm1
I0430 19:24:32.926429 2050462464 net.cpp:380] norm1 <- pool1
I0430 19:24:32.926440 2050462464 net.cpp:338] norm1 -> norm1
I0430 19:24:32.926452 2050462464 net.cpp:113] Setting up norm1
I0430 19:24:32.926465 2050462464 net.cpp:120] Top shape: 64 96 27 27 (4478976)
I0430 19:24:32.926476 2050462464 layer_factory.hpp:74] Creating layer conv2
I0430 19:24:32.926491 2050462464 net.cpp:84] Creating Layer conv2
I0430 19:24:32.926499 2050462464 net.cpp:380] conv2 <- norm1
I0430 19:24:32.926512 2050462464 net.cpp:338] conv2 -> conv2
I0430 19:24:32.926525 2050462464 net.cpp:113] Setting up conv2
I0430 19:24:32.936224 2050462464 net.cpp:120] Top shape: 64 256 27 27 (11943936)
I0430 19:24:32.936300 2050462464 layer_factory.hpp:74] Creating layer relu2
I0430 19:24:32.936316 2050462464 net.cpp:84] Creating Layer relu2
I0430 19:24:32.936326 2050462464 net.cpp:380] relu2 <- conv2
I0430 19:24:32.936338 2050462464 net.cpp:327] relu2 -> conv2 (in-place)
I0430 19:24:32.936352 2050462464 net.cpp:113] Setting up relu2
I0430 19:24:32.936360 2050462464 net.cpp:120] Top shape: 64 256 27 27 (11943936)
I0430 19:24:32.936373 2050462464 layer_factory.hpp:74] Creating layer pool2
I0430 19:24:32.936388 2050462464 net.cpp:84] Creating Layer pool2
I0430 19:24:32.936396 2050462464 net.cpp:380] pool2 <- conv2
I0430 19:24:32.936408 2050462464 net.cpp:338] pool2 -> pool2
I0430 19:24:32.936429 2050462464 net.cpp:113] Setting up pool2
I0430 19:24:32.936444 2050462464 net.cpp:120] Top shape: 64 256 13 13 (2768896)
I0430 19:24:32.936456 2050462464 layer_factory.hpp:74] Creating layer norm2
I0430 19:24:32.936467 2050462464 net.cpp:84] Creating Layer norm2
I0430 19:24:32.936477 2050462464 net.cpp:380] norm2 <- pool2
I0430 19:24:32.936489 2050462464 net.cpp:338] norm2 -> norm2
I0430 19:24:32.936501 2050462464 net.cpp:113] Setting up norm2
I0430 19:24:32.936513 2050462464 net.cpp:120] Top shape: 64 256 13 13 (2768896)
I0430 19:24:32.936524 2050462464 layer_factory.hpp:74] Creating layer conv3
I0430 19:24:32.936538 2050462464 net.cpp:84] Creating Layer conv3
I0430 19:24:32.936547 2050462464 net.cpp:380] conv3 <- norm2
I0430 19:24:32.936558 2050462464 net.cpp:338] conv3 -> conv3
I0430 19:24:32.936573 2050462464 net.cpp:113] Setting up conv3
I0430 19:24:32.961535 2050462464 net.cpp:120] Top shape: 64 384 13 13 (4153344)
I0430 19:24:32.961601 2050462464 layer_factory.hpp:74] Creating layer relu3
I0430 19:24:32.961617 2050462464 net.cpp:84] Creating Layer relu3
I0430 19:24:32.961627 2050462464 net.cpp:380] relu3 <- conv3
I0430 19:24:32.961638 2050462464 net.cpp:327] relu3 -> conv3 (in-place)
I0430 19:24:32.961650 2050462464 net.cpp:113] Setting up relu3
I0430 19:24:32.961660 2050462464 net.cpp:120] Top shape: 64 384 13 13 (4153344)
I0430 19:24:32.961671 2050462464 layer_factory.hpp:74] Creating layer conv4
I0430 19:24:32.961686 2050462464 net.cpp:84] Creating Layer conv4
I0430 19:24:32.961695 2050462464 net.cpp:380] conv4 <- conv3
I0430 19:24:32.961706 2050462464 net.cpp:338] conv4 -> conv4
I0430 19:24:32.961720 2050462464 net.cpp:113] Setting up conv4
I0430 19:24:32.981053 2050462464 net.cpp:120] Top shape: 64 384 13 13 (4153344)
I0430 19:24:32.981092 2050462464 layer_factory.hpp:74] Creating layer relu4
I0430 19:24:32.981111 2050462464 net.cpp:84] Creating Layer relu4
I0430 19:24:32.981122 2050462464 net.cpp:380] relu4 <- conv4
I0430 19:24:32.981135 2050462464 net.cpp:327] relu4 -> conv4 (in-place)
I0430 19:24:32.981148 2050462464 net.cpp:113] Setting up relu4
I0430 19:24:32.981158 2050462464 net.cpp:120] Top shape: 64 384 13 13 (4153344)
I0430 19:24:32.981170 2050462464 layer_factory.hpp:74] Creating layer conv5
I0430 19:24:32.981185 2050462464 net.cpp:84] Creating Layer conv5
I0430 19:24:32.981195 2050462464 net.cpp:380] conv5 <- conv4
I0430 19:24:32.981210 2050462464 net.cpp:338] conv5 -> conv5
I0430 19:24:32.981241 2050462464 net.cpp:113] Setting up conv5
I0430 19:24:32.994616 2050462464 net.cpp:120] Top shape: 64 256 13 13 (2768896)
I0430 19:24:32.994647 2050462464 layer_factory.hpp:74] Creating layer relu5
I0430 19:24:32.994664 2050462464 net.cpp:84] Creating Layer relu5
I0430 19:24:32.994675 2050462464 net.cpp:380] relu5 <- conv5
I0430 19:24:32.994688 2050462464 net.cpp:327] relu5 -> conv5 (in-place)
I0430 19:24:32.995899 2050462464 net.cpp:113] Setting up relu5
I0430 19:24:32.995928 2050462464 net.cpp:120] Top shape: 64 256 13 13 (2768896)
I0430 19:24:32.995942 2050462464 layer_factory.hpp:74] Creating layer pool5
I0430 19:24:32.995961 2050462464 net.cpp:84] Creating Layer pool5
I0430 19:24:32.995972 2050462464 net.cpp:380] pool5 <- conv5
I0430 19:24:32.995985 2050462464 net.cpp:338] pool5 -> pool5
I0430 19:24:32.996000 2050462464 net.cpp:113] Setting up pool5
I0430 19:24:32.996014 2050462464 net.cpp:120] Top shape: 64 256 6 6 (589824)
I0430 19:24:32.996026 2050462464 layer_factory.hpp:74] Creating layer fc6
I0430 19:24:32.996042 2050462464 net.cpp:84] Creating Layer fc6
I0430 19:24:32.996050 2050462464 net.cpp:380] fc6 <- pool5
I0430 19:24:32.996062 2050462464 net.cpp:338] fc6 -> fc6
I0430 19:24:32.996078 2050462464 net.cpp:113] Setting up fc6
I0430 19:24:33.892565 2050462464 net.cpp:120] Top shape: 64 4096 (262144)
I0430 19:24:33.892601 2050462464 layer_factory.hpp:74] Creating layer relu6
I0430 19:24:33.892613 2050462464 net.cpp:84] Creating Layer relu6
I0430 19:24:33.892619 2050462464 net.cpp:380] relu6 <- fc6
I0430 19:24:33.892627 2050462464 net.cpp:327] relu6 -> fc6 (in-place)
I0430 19:24:33.892635 2050462464 net.cpp:113] Setting up relu6
I0430 19:24:33.892640 2050462464 net.cpp:120] Top shape: 64 4096 (262144)
I0430 19:24:33.892647 2050462464 layer_factory.hpp:74] Creating layer drop6
I0430 19:24:33.892654 2050462464 net.cpp:84] Creating Layer drop6
I0430 19:24:33.892658 2050462464 net.cpp:380] drop6 <- fc6
I0430 19:24:33.892665 2050462464 net.cpp:327] drop6 -> fc6 (in-place)
I0430 19:24:33.892673 2050462464 net.cpp:113] Setting up drop6
I0430 19:24:33.892681 2050462464 net.cpp:120] Top shape: 64 4096 (262144)
I0430 19:24:33.892688 2050462464 layer_factory.hpp:74] Creating layer fc7
I0430 19:24:33.892698 2050462464 net.cpp:84] Creating Layer fc7
I0430 19:24:33.892702 2050462464 net.cpp:380] fc7 <- fc6
I0430 19:24:33.892709 2050462464 net.cpp:338] fc7 -> fc7
I0430 19:24:33.892717 2050462464 net.cpp:113] Setting up fc7
I0430 19:24:34.236332 2050462464 net.cpp:120] Top shape: 64 4096 (262144)
I0430 19:24:34.236377 2050462464 layer_factory.hpp:74] Creating layer relu7
I0430 19:24:34.236438 2050462464 net.cpp:84] Creating Layer relu7
I0430 19:24:34.236451 2050462464 net.cpp:380] relu7 <- fc7
I0430 19:24:34.236464 2050462464 net.cpp:327] relu7 -> fc7 (in-place)
I0430 19:24:34.236477 2050462464 net.cpp:113] Setting up relu7
I0430 19:24:34.236486 2050462464 net.cpp:120] Top shape: 64 4096 (262144)
I0430 19:24:34.236497 2050462464 layer_factory.hpp:74] Creating layer drop7
I0430 19:24:34.236510 2050462464 net.cpp:84] Creating Layer drop7
I0430 19:24:34.236517 2050462464 net.cpp:380] drop7 <- fc7
I0430 19:24:34.236527 2050462464 net.cpp:327] drop7 -> fc7 (in-place)
I0430 19:24:34.236539 2050462464 net.cpp:113] Setting up drop7
I0430 19:24:34.236551 2050462464 net.cpp:120] Top shape: 64 4096 (262144)
I0430 19:24:34.236560 2050462464 layer_factory.hpp:74] Creating layer fc8_VOC
I0430 19:24:34.236575 2050462464 net.cpp:84] Creating Layer fc8_VOC
I0430 19:24:34.236583 2050462464 net.cpp:380] fc8_VOC <- fc7
I0430 19:24:34.236596 2050462464 net.cpp:338] fc8_VOC -> fc8_VOC
I0430 19:24:34.236613 2050462464 net.cpp:113] Setting up fc8_VOC
I0430 19:24:34.237076 2050462464 net.cpp:120] Top shape: 64 5 (320)
I0430 19:24:34.237102 2050462464 layer_factory.hpp:74] Creating layer fc8_VOC_fc8_VOC_0_split
I0430 19:24:34.237115 2050462464 net.cpp:84] Creating Layer fc8_VOC_fc8_VOC_0_split
I0430 19:24:34.237124 2050462464 net.cpp:380] fc8_VOC_fc8_VOC_0_split <- fc8_VOC
I0430 19:24:34.237136 2050462464 net.cpp:338] fc8_VOC_fc8_VOC_0_split -> fc8_VOC_fc8_VOC_0_split_0
I0430 19:24:34.237151 2050462464 net.cpp:338] fc8_VOC_fc8_VOC_0_split -> fc8_VOC_fc8_VOC_0_split_1
I0430 19:24:34.237165 2050462464 net.cpp:113] Setting up fc8_VOC_fc8_VOC_0_split
I0430 19:24:34.237175 2050462464 net.cpp:120] Top shape: 64 5 (320)
I0430 19:24:34.237185 2050462464 net.cpp:120] Top shape: 64 5 (320)
I0430 19:24:34.237193 2050462464 layer_factory.hpp:74] Creating layer accuracy
I0430 19:24:34.237211 2050462464 net.cpp:84] Creating Layer accuracy
I0430 19:24:34.237220 2050462464 net.cpp:380] accuracy <- fc8_VOC_fc8_VOC_0_split_0
I0430 19:24:34.237229 2050462464 net.cpp:380] accuracy <- label_data_1_split_0
I0430 19:24:34.237241 2050462464 net.cpp:338] accuracy -> accuracy
I0430 19:24:34.237252 2050462464 net.cpp:113] Setting up accuracy
…
